program(1.0)
[buildInfo = dict<tensor<string, []>, tensor<string, []>>({{"coremlc-component-MIL", "3402.3.2"}, {"coremlc-version", "3402.4.1"}, {"coremltools-component-tensorflow", "2.13.0"}, {"coremltools-version", "8.2"}})]
{
    func main<ios15>(tensor<fp32, [1, 3, 224, 224]> mobilenetv2_1_00_224_input) {
            tensor<fp32, []> mobilenetv2_1_00_224_input__scaled___y_0 = const()[name = tensor<string, []>("mobilenetv2_1_00_224_input__scaled___y_0"), val = tensor<fp32, []>(0x1.010102p-7)];
            tensor<fp32, [1, 3, 224, 224]> mobilenetv2_1_00_224_input__scaled__ = mul(x = mobilenetv2_1_00_224_input, y = mobilenetv2_1_00_224_input__scaled___y_0)[name = tensor<string, []>("mobilenetv2_1_00_224_input__scaled__")];
            tensor<fp32, [1, 3, 1, 1]> mobilenetv2_1_00_224_input__biased___y_0 = const()[name = tensor<string, []>("mobilenetv2_1_00_224_input__biased___y_0"), val = tensor<fp32, [1, 3, 1, 1]>([[[[-0x1p+0]], [[-0x1p+0]], [[-0x1p+0]]]])];
            tensor<fp32, [1, 3, 224, 224]> mobilenetv2_1_00_224_input__biased__ = add(x = mobilenetv2_1_00_224_input__scaled__, y = mobilenetv2_1_00_224_input__biased___y_0)[name = tensor<string, []>("mobilenetv2_1_00_224_input__biased__")];
            tensor<string, []> sequential_23_mobilenetv2_1_00_224_Conv1_Conv2Dx_pad_type_0 = const()[name = tensor<string, []>("sequential_23_mobilenetv2_1_00_224_Conv1_Conv2Dx_pad_type_0"), val = tensor<string, []>("same")];
            tensor<int32, [2]> sequential_23_mobilenetv2_1_00_224_Conv1_Conv2Dx_strides_0 = const()[name = tensor<string, []>("sequential_23_mobilenetv2_1_00_224_Conv1_Conv2Dx_strides_0"), val = tensor<int32, [2]>([2, 2])];
            tensor<int32, [2]> sequential_23_mobilenetv2_1_00_224_Conv1_Conv2Dx_dilations_0 = const()[name = tensor<string, []>("sequential_23_mobilenetv2_1_00_224_Conv1_Conv2Dx_dilations_0"), val = tensor<int32, [2]>([1, 1])];
            tensor<int32, []> sequential_23_mobilenetv2_1_00_224_Conv1_Conv2Dx_groups_0 = const()[name = tensor<string, []>("sequential_23_mobilenetv2_1_00_224_Conv1_Conv2Dx_groups_0"), val = tensor<int32, []>(1)];
            tensor<int32, [4]> sequential_23_mobilenetv2_1_00_224_Conv1_Conv2Dx_pad_0 = const()[name = tensor<string, []>("sequential_23_mobilenetv2_1_00_224_Conv1_Conv2Dx_pad_0"), val = tensor<int32, [4]>([0, 0, 0, 0])];
            tensor<fp32, [32, 3, 3, 3]> const_4 = const()[name = tensor<string, []>("const_4"), val = tensor<fp32, [32, 3, 3, 3]>(BLOBFILE(path = tensor<string, []>("@model_path/weights/weight.bin"), offset = tensor<uint64, []>(64)))];
            tensor<fp32, [32]> const_5 = const()[name = tensor<string, []>("const_5"), val = tensor<fp32, [32]>(BLOBFILE(path = tensor<string, []>("@model_path/weights/weight.bin"), offset = tensor<uint64, []>(3584)))];
            tensor<fp32, [1, 32, 112, 112]> sequential_23_mobilenetv2_1_00_224_bn_Conv1_FusedBatchNormV3_nchw = conv(bias = const_5, dilations = sequential_23_mobilenetv2_1_00_224_Conv1_Conv2Dx_dilations_0, groups = sequential_23_mobilenetv2_1_00_224_Conv1_Conv2Dx_groups_0, pad = sequential_23_mobilenetv2_1_00_224_Conv1_Conv2Dx_pad_0, pad_type = sequential_23_mobilenetv2_1_00_224_Conv1_Conv2Dx_pad_type_0, strides = sequential_23_mobilenetv2_1_00_224_Conv1_Conv2Dx_strides_0, weight = const_4, x = mobilenetv2_1_00_224_input__biased__)[name = tensor<string, []>("sequential_23_mobilenetv2_1_00_224_bn_Conv1_FusedBatchNormV3_nchw")];
            tensor<fp32, [1, 32, 112, 112]> sequential_23_mobilenetv2_1_00_224_Conv1_relu_Relu6 = relu6(x = sequential_23_mobilenetv2_1_00_224_bn_Conv1_FusedBatchNormV3_nchw)[name = tensor<string, []>("sequential_23_mobilenetv2_1_00_224_Conv1_relu_Relu6")];
            tensor<string, []> sequential_23_mobilenetv2_1_00_224_expanded_conv_depthwise_depthwisex_pad_type_0 = const()[name = tensor<string, []>("sequential_23_mobilenetv2_1_00_224_expanded_conv_depthwise_depthwisex_pad_type_0"), val = tensor<string, []>("same")];
            tensor<int32, [2]> sequential_23_mobilenetv2_1_00_224_expanded_conv_depthwise_depthwisex_strides_0 = const()[name = tensor<string, []>("sequential_23_mobilenetv2_1_00_224_expanded_conv_depthwise_depthwisex_strides_0"), val = tensor<int32, [2]>([1, 1])];
            tensor<int32, [2]> sequential_23_mobilenetv2_1_00_224_expanded_conv_depthwise_depthwisex_dilations_0 = const()[name = tensor<string, []>("sequential_23_mobilenetv2_1_00_224_expanded_conv_depthwise_depthwisex_dilations_0"), val = tensor<int32, [2]>([1, 1])];
            tensor<int32, []> sequential_23_mobilenetv2_1_00_224_expanded_conv_depthwise_depthwisex_groups_0 = const()[name = tensor<string, []>("sequential_23_mobilenetv2_1_00_224_expanded_conv_depthwise_depthwisex_groups_0"), val = tensor<int32, []>(32)];
            tensor<int32, [4]> sequential_23_mobilenetv2_1_00_224_expanded_conv_depthwise_depthwisex_pad_0 = const()[name = tensor<string, []>("sequential_23_mobilenetv2_1_00_224_expanded_conv_depthwise_depthwisex_pad_0"), val = tensor<int32, [4]>([0, 0, 0, 0])];
            tensor<fp32, [32, 1, 3, 3]> const_6 = const()[name = tensor<string, []>("const_6"), val = tensor<fp32, [32, 1, 3, 3]>(BLOBFILE(path = tensor<string, []>("@model_path/weights/weight.bin"), offset = tensor<uint64, []>(3776)))];
            tensor<fp32, [32]> const_7 = const()[name = tensor<string, []>("const_7"), val = tensor<fp32, [32]>(BLOBFILE(path = tensor<string, []>("@model_path/weights/weight.bin"), offset = tensor<uint64, []>(4992)))];
            tensor<fp32, [1, 32, 112, 112]> sequential_23_mobilenetv2_1_00_224_expanded_conv_depthwise_BN_FusedBatchNormV3_nchw = conv(bias = const_7, dilations = sequential_23_mobilenetv2_1_00_224_expanded_conv_depthwise_depthwisex_dilations_0, groups = sequential_23_mobilenetv2_1_00_224_expanded_conv_depthwise_depthwisex_groups_0, pad = sequential_23_mobilenetv2_1_00_224_expanded_conv_depthwise_depthwisex_pad_0, pad_type = sequential_23_mobilenetv2_1_00_224_expanded_conv_depthwise_depthwisex_pad_type_0, strides = sequential_23_mobilenetv2_1_00_224_expanded_conv_depthwise_depthwisex_strides_0, weight = const_6, x = sequential_23_mobilenetv2_1_00_224_Conv1_relu_Relu6)[name = tensor<string, []>("sequential_23_mobilenetv2_1_00_224_expanded_conv_depthwise_BN_FusedBatchNormV3_nchw")];
            tensor<fp32, [1, 32, 112, 112]> sequential_23_mobilenetv2_1_00_224_expanded_conv_depthwise_relu_Relu6 = relu6(x = sequential_23_mobilenetv2_1_00_224_expanded_conv_depthwise_BN_FusedBatchNormV3_nchw)[name = tensor<string, []>("sequential_23_mobilenetv2_1_00_224_expanded_conv_depthwise_relu_Relu6")];
            tensor<string, []> sequential_23_mobilenetv2_1_00_224_expanded_conv_project_Conv2Dx_pad_type_0 = const()[name = tensor<string, []>("sequential_23_mobilenetv2_1_00_224_expanded_conv_project_Conv2Dx_pad_type_0"), val = tensor<string, []>("same")];
            tensor<int32, [2]> sequential_23_mobilenetv2_1_00_224_expanded_conv_project_Conv2Dx_strides_0 = const()[name = tensor<string, []>("sequential_23_mobilenetv2_1_00_224_expanded_conv_project_Conv2Dx_strides_0"), val = tensor<int32, [2]>([1, 1])];
            tensor<int32, [2]> sequential_23_mobilenetv2_1_00_224_expanded_conv_project_Conv2Dx_dilations_0 = const()[name = tensor<string, []>("sequential_23_mobilenetv2_1_00_224_expanded_conv_project_Conv2Dx_dilations_0"), val = tensor<int32, [2]>([1, 1])];
            tensor<int32, []> sequential_23_mobilenetv2_1_00_224_expanded_conv_project_Conv2Dx_groups_0 = const()[name = tensor<string, []>("sequential_23_mobilenetv2_1_00_224_expanded_conv_project_Conv2Dx_groups_0"), val = tensor<int32, []>(1)];
            tensor<int32, [4]> sequential_23_mobilenetv2_1_00_224_expanded_conv_project_Conv2Dx_pad_0 = const()[name = tensor<string, []>("sequential_23_mobilenetv2_1_00_224_expanded_conv_project_Conv2Dx_pad_0"), val = tensor<int32, [4]>([0, 0, 0, 0])];
            tensor<fp32, [16, 32, 1, 1]> const_8 = const()[name = tensor<string, []>("const_8"), val = tensor<fp32, [16, 32, 1, 1]>(BLOBFILE(path = tensor<string, []>("@model_path/weights/weight.bin"), offset = tensor<uint64, []>(5184)))];
            tensor<fp32, [16]> const_9 = const()[name = tensor<string, []>("const_9"), val = tensor<fp32, [16]>(BLOBFILE(path = tensor<string, []>("@model_path/weights/weight.bin"), offset = tensor<uint64, []>(7296)))];
            tensor<fp32, [1, 16, 112, 112]> sequential_23_mobilenetv2_1_00_224_expanded_conv_project_BN_FusedBatchNormV3_nchw = conv(bias = const_9, dilations = sequential_23_mobilenetv2_1_00_224_expanded_conv_project_Conv2Dx_dilations_0, groups = sequential_23_mobilenetv2_1_00_224_expanded_conv_project_Conv2Dx_groups_0, pad = sequential_23_mobilenetv2_1_00_224_expanded_conv_project_Conv2Dx_pad_0, pad_type = sequential_23_mobilenetv2_1_00_224_expanded_conv_project_Conv2Dx_pad_type_0, strides = sequential_23_mobilenetv2_1_00_224_expanded_conv_project_Conv2Dx_strides_0, weight = const_8, x = sequential_23_mobilenetv2_1_00_224_expanded_conv_depthwise_relu_Relu6)[name = tensor<string, []>("sequential_23_mobilenetv2_1_00_224_expanded_conv_project_BN_FusedBatchNormV3_nchw")];
            tensor<string, []> sequential_23_mobilenetv2_1_00_224_block_1_expand_Conv2Dx_pad_type_0 = const()[name = tensor<string, []>("sequential_23_mobilenetv2_1_00_224_block_1_expand_Conv2Dx_pad_type_0"), val = tensor<string, []>("same")];
            tensor<int32, [2]> sequential_23_mobilenetv2_1_00_224_block_1_expand_Conv2Dx_strides_0 = const()[name = tensor<string, []>("sequential_23_mobilenetv2_1_00_224_block_1_expand_Conv2Dx_strides_0"), val = tensor<int32, [2]>([1, 1])];
            tensor<int32, [2]> sequential_23_mobilenetv2_1_00_224_block_1_expand_Conv2Dx_dilations_0 = const()[name = tensor<string, []>("sequential_23_mobilenetv2_1_00_224_block_1_expand_Conv2Dx_dilations_0"), val = tensor<int32, [2]>([1, 1])];
            tensor<int32, []> sequential_23_mobilenetv2_1_00_224_block_1_expand_Conv2Dx_groups_0 = const()[name = tensor<string, []>("sequential_23_mobilenetv2_1_00_224_block_1_expand_Conv2Dx_groups_0"), val = tensor<int32, []>(1)];
            tensor<int32, [4]> sequential_23_mobilenetv2_1_00_224_block_1_expand_Conv2Dx_pad_0 = const()[name = tensor<string, []>("sequential_23_mobilenetv2_1_00_224_block_1_expand_Conv2Dx_pad_0"), val = tensor<int32, [4]>([0, 0, 0, 0])];
            tensor<fp32, [96, 16, 1, 1]> const_10 = const()[name = tensor<string, []>("const_10"), val = tensor<fp32, [96, 16, 1, 1]>(BLOBFILE(path = tensor<string, []>("@model_path/weights/weight.bin"), offset = tensor<uint64, []>(7424)))];
            tensor<fp32, [96]> const_11 = const()[name = tensor<string, []>("const_11"), val = tensor<fp32, [96]>(BLOBFILE(path = tensor<string, []>("@model_path/weights/weight.bin"), offset = tensor<uint64, []>(13632)))];
            tensor<fp32, [1, 96, 112, 112]> sequential_23_mobilenetv2_1_00_224_block_1_expand_BN_FusedBatchNormV3_nchw = conv(bias = const_11, dilations = sequential_23_mobilenetv2_1_00_224_block_1_expand_Conv2Dx_dilations_0, groups = sequential_23_mobilenetv2_1_00_224_block_1_expand_Conv2Dx_groups_0, pad = sequential_23_mobilenetv2_1_00_224_block_1_expand_Conv2Dx_pad_0, pad_type = sequential_23_mobilenetv2_1_00_224_block_1_expand_Conv2Dx_pad_type_0, strides = sequential_23_mobilenetv2_1_00_224_block_1_expand_Conv2Dx_strides_0, weight = const_10, x = sequential_23_mobilenetv2_1_00_224_expanded_conv_project_BN_FusedBatchNormV3_nchw)[name = tensor<string, []>("sequential_23_mobilenetv2_1_00_224_block_1_expand_BN_FusedBatchNormV3_nchw")];
            tensor<fp32, [1, 96, 112, 112]> sequential_23_mobilenetv2_1_00_224_block_1_expand_relu_Relu6 = relu6(x = sequential_23_mobilenetv2_1_00_224_block_1_expand_BN_FusedBatchNormV3_nchw)[name = tensor<string, []>("sequential_23_mobilenetv2_1_00_224_block_1_expand_relu_Relu6")];
            tensor<fp32, []> const_0 = const()[name = tensor<string, []>("const_0"), val = tensor<fp32, []>(0x0p+0)];
            tensor<string, []> pad_0_mode_0 = const()[name = tensor<string, []>("pad_0_mode_0"), val = tensor<string, []>("constant")];
            tensor<int32, [8]> pad_4_pad_0 = const()[name = tensor<string, []>("pad_4_pad_0"), val = tensor<int32, [8]>([0, 0, 0, 0, 0, 1, 0, 1])];
            tensor<fp32, [1, 96, 113, 113]> pad_4 = pad(constant_val = const_0, mode = pad_0_mode_0, pad = pad_4_pad_0, x = sequential_23_mobilenetv2_1_00_224_block_1_expand_relu_Relu6)[name = tensor<string, []>("pad_4")];
            tensor<string, []> sequential_23_mobilenetv2_1_00_224_block_1_depthwise_depthwisex_pad_type_0 = const()[name = tensor<string, []>("sequential_23_mobilenetv2_1_00_224_block_1_depthwise_depthwisex_pad_type_0"), val = tensor<string, []>("valid")];
            tensor<int32, [2]> sequential_23_mobilenetv2_1_00_224_block_1_depthwise_depthwisex_strides_0 = const()[name = tensor<string, []>("sequential_23_mobilenetv2_1_00_224_block_1_depthwise_depthwisex_strides_0"), val = tensor<int32, [2]>([2, 2])];
            tensor<int32, [2]> sequential_23_mobilenetv2_1_00_224_block_1_depthwise_depthwisex_dilations_0 = const()[name = tensor<string, []>("sequential_23_mobilenetv2_1_00_224_block_1_depthwise_depthwisex_dilations_0"), val = tensor<int32, [2]>([1, 1])];
            tensor<int32, []> sequential_23_mobilenetv2_1_00_224_block_1_depthwise_depthwisex_groups_0 = const()[name = tensor<string, []>("sequential_23_mobilenetv2_1_00_224_block_1_depthwise_depthwisex_groups_0"), val = tensor<int32, []>(96)];
            tensor<int32, [4]> sequential_23_mobilenetv2_1_00_224_block_1_depthwise_depthwisex_pad_0 = const()[name = tensor<string, []>("sequential_23_mobilenetv2_1_00_224_block_1_depthwise_depthwisex_pad_0"), val = tensor<int32, [4]>([0, 0, 0, 0])];
            tensor<fp32, [96, 1, 3, 3]> const_12 = const()[name = tensor<string, []>("const_12"), val = tensor<fp32, [96, 1, 3, 3]>(BLOBFILE(path = tensor<string, []>("@model_path/weights/weight.bin"), offset = tensor<uint64, []>(14080)))];
            tensor<fp32, [96]> const_13 = const()[name = tensor<string, []>("const_13"), val = tensor<fp32, [96]>(BLOBFILE(path = tensor<string, []>("@model_path/weights/weight.bin"), offset = tensor<uint64, []>(17600)))];
            tensor<fp32, [1, 96, 56, 56]> sequential_23_mobilenetv2_1_00_224_block_1_depthwise_BN_FusedBatchNormV3_nchw = conv(bias = const_13, dilations = sequential_23_mobilenetv2_1_00_224_block_1_depthwise_depthwisex_dilations_0, groups = sequential_23_mobilenetv2_1_00_224_block_1_depthwise_depthwisex_groups_0, pad = sequential_23_mobilenetv2_1_00_224_block_1_depthwise_depthwisex_pad_0, pad_type = sequential_23_mobilenetv2_1_00_224_block_1_depthwise_depthwisex_pad_type_0, strides = sequential_23_mobilenetv2_1_00_224_block_1_depthwise_depthwisex_strides_0, weight = const_12, x = pad_4)[name = tensor<string, []>("sequential_23_mobilenetv2_1_00_224_block_1_depthwise_BN_FusedBatchNormV3_nchw")];
            tensor<fp32, [1, 96, 56, 56]> sequential_23_mobilenetv2_1_00_224_block_1_depthwise_relu_Relu6 = relu6(x = sequential_23_mobilenetv2_1_00_224_block_1_depthwise_BN_FusedBatchNormV3_nchw)[name = tensor<string, []>("sequential_23_mobilenetv2_1_00_224_block_1_depthwise_relu_Relu6")];
            tensor<string, []> sequential_23_mobilenetv2_1_00_224_block_1_project_Conv2Dx_pad_type_0 = const()[name = tensor<string, []>("sequential_23_mobilenetv2_1_00_224_block_1_project_Conv2Dx_pad_type_0"), val = tensor<string, []>("same")];
            tensor<int32, [2]> sequential_23_mobilenetv2_1_00_224_block_1_project_Conv2Dx_strides_0 = const()[name = tensor<string, []>("sequential_23_mobilenetv2_1_00_224_block_1_project_Conv2Dx_strides_0"), val = tensor<int32, [2]>([1, 1])];
            tensor<int32, [2]> sequential_23_mobilenetv2_1_00_224_block_1_project_Conv2Dx_dilations_0 = const()[name = tensor<string, []>("sequential_23_mobilenetv2_1_00_224_block_1_project_Conv2Dx_dilations_0"), val = tensor<int32, [2]>([1, 1])];
            tensor<int32, []> sequential_23_mobilenetv2_1_00_224_block_1_project_Conv2Dx_groups_0 = const()[name = tensor<string, []>("sequential_23_mobilenetv2_1_00_224_block_1_project_Conv2Dx_groups_0"), val = tensor<int32, []>(1)];
            tensor<int32, [4]> sequential_23_mobilenetv2_1_00_224_block_1_project_Conv2Dx_pad_0 = const()[name = tensor<string, []>("sequential_23_mobilenetv2_1_00_224_block_1_project_Conv2Dx_pad_0"), val = tensor<int32, [4]>([0, 0, 0, 0])];
            tensor<fp32, [24, 96, 1, 1]> const_14 = const()[name = tensor<string, []>("const_14"), val = tensor<fp32, [24, 96, 1, 1]>(BLOBFILE(path = tensor<string, []>("@model_path/weights/weight.bin"), offset = tensor<uint64, []>(18048)))];
            tensor<fp32, [24]> const_15 = const()[name = tensor<string, []>("const_15"), val = tensor<fp32, [24]>(BLOBFILE(path = tensor<string, []>("@model_path/weights/weight.bin"), offset = tensor<uint64, []>(27328)))];
            tensor<fp32, [1, 24, 56, 56]> sequential_23_mobilenetv2_1_00_224_block_1_project_BN_FusedBatchNormV3_nchw = conv(bias = const_15, dilations = sequential_23_mobilenetv2_1_00_224_block_1_project_Conv2Dx_dilations_0, groups = sequential_23_mobilenetv2_1_00_224_block_1_project_Conv2Dx_groups_0, pad = sequential_23_mobilenetv2_1_00_224_block_1_project_Conv2Dx_pad_0, pad_type = sequential_23_mobilenetv2_1_00_224_block_1_project_Conv2Dx_pad_type_0, strides = sequential_23_mobilenetv2_1_00_224_block_1_project_Conv2Dx_strides_0, weight = const_14, x = sequential_23_mobilenetv2_1_00_224_block_1_depthwise_relu_Relu6)[name = tensor<string, []>("sequential_23_mobilenetv2_1_00_224_block_1_project_BN_FusedBatchNormV3_nchw")];
            tensor<string, []> sequential_23_mobilenetv2_1_00_224_block_2_expand_Conv2Dx_pad_type_0 = const()[name = tensor<string, []>("sequential_23_mobilenetv2_1_00_224_block_2_expand_Conv2Dx_pad_type_0"), val = tensor<string, []>("same")];
            tensor<int32, [2]> sequential_23_mobilenetv2_1_00_224_block_2_expand_Conv2Dx_strides_0 = const()[name = tensor<string, []>("sequential_23_mobilenetv2_1_00_224_block_2_expand_Conv2Dx_strides_0"), val = tensor<int32, [2]>([1, 1])];
            tensor<int32, [2]> sequential_23_mobilenetv2_1_00_224_block_2_expand_Conv2Dx_dilations_0 = const()[name = tensor<string, []>("sequential_23_mobilenetv2_1_00_224_block_2_expand_Conv2Dx_dilations_0"), val = tensor<int32, [2]>([1, 1])];
            tensor<int32, []> sequential_23_mobilenetv2_1_00_224_block_2_expand_Conv2Dx_groups_0 = const()[name = tensor<string, []>("sequential_23_mobilenetv2_1_00_224_block_2_expand_Conv2Dx_groups_0"), val = tensor<int32, []>(1)];
            tensor<int32, [4]> sequential_23_mobilenetv2_1_00_224_block_2_expand_Conv2Dx_pad_0 = const()[name = tensor<string, []>("sequential_23_mobilenetv2_1_00_224_block_2_expand_Conv2Dx_pad_0"), val = tensor<int32, [4]>([0, 0, 0, 0])];
            tensor<fp32, [144, 24, 1, 1]> const_16 = const()[name = tensor<string, []>("const_16"), val = tensor<fp32, [144, 24, 1, 1]>(BLOBFILE(path = tensor<string, []>("@model_path/weights/weight.bin"), offset = tensor<uint64, []>(27520)))];
            tensor<fp32, [144]> const_17 = const()[name = tensor<string, []>("const_17"), val = tensor<fp32, [144]>(BLOBFILE(path = tensor<string, []>("@model_path/weights/weight.bin"), offset = tensor<uint64, []>(41408)))];
            tensor<fp32, [1, 144, 56, 56]> sequential_23_mobilenetv2_1_00_224_block_2_expand_BN_FusedBatchNormV3_nchw = conv(bias = const_17, dilations = sequential_23_mobilenetv2_1_00_224_block_2_expand_Conv2Dx_dilations_0, groups = sequential_23_mobilenetv2_1_00_224_block_2_expand_Conv2Dx_groups_0, pad = sequential_23_mobilenetv2_1_00_224_block_2_expand_Conv2Dx_pad_0, pad_type = sequential_23_mobilenetv2_1_00_224_block_2_expand_Conv2Dx_pad_type_0, strides = sequential_23_mobilenetv2_1_00_224_block_2_expand_Conv2Dx_strides_0, weight = const_16, x = sequential_23_mobilenetv2_1_00_224_block_1_project_BN_FusedBatchNormV3_nchw)[name = tensor<string, []>("sequential_23_mobilenetv2_1_00_224_block_2_expand_BN_FusedBatchNormV3_nchw")];
            tensor<fp32, [1, 144, 56, 56]> sequential_23_mobilenetv2_1_00_224_block_2_expand_relu_Relu6 = relu6(x = sequential_23_mobilenetv2_1_00_224_block_2_expand_BN_FusedBatchNormV3_nchw)[name = tensor<string, []>("sequential_23_mobilenetv2_1_00_224_block_2_expand_relu_Relu6")];
            tensor<string, []> sequential_23_mobilenetv2_1_00_224_block_2_depthwise_depthwisex_pad_type_0 = const()[name = tensor<string, []>("sequential_23_mobilenetv2_1_00_224_block_2_depthwise_depthwisex_pad_type_0"), val = tensor<string, []>("same")];
            tensor<int32, [2]> sequential_23_mobilenetv2_1_00_224_block_2_depthwise_depthwisex_strides_0 = const()[name = tensor<string, []>("sequential_23_mobilenetv2_1_00_224_block_2_depthwise_depthwisex_strides_0"), val = tensor<int32, [2]>([1, 1])];
            tensor<int32, [2]> sequential_23_mobilenetv2_1_00_224_block_2_depthwise_depthwisex_dilations_0 = const()[name = tensor<string, []>("sequential_23_mobilenetv2_1_00_224_block_2_depthwise_depthwisex_dilations_0"), val = tensor<int32, [2]>([1, 1])];
            tensor<int32, []> sequential_23_mobilenetv2_1_00_224_block_2_depthwise_depthwisex_groups_0 = const()[name = tensor<string, []>("sequential_23_mobilenetv2_1_00_224_block_2_depthwise_depthwisex_groups_0"), val = tensor<int32, []>(144)];
            tensor<int32, [4]> sequential_23_mobilenetv2_1_00_224_block_2_depthwise_depthwisex_pad_0 = const()[name = tensor<string, []>("sequential_23_mobilenetv2_1_00_224_block_2_depthwise_depthwisex_pad_0"), val = tensor<int32, [4]>([0, 0, 0, 0])];
            tensor<fp32, [144, 1, 3, 3]> const_18 = const()[name = tensor<string, []>("const_18"), val = tensor<fp32, [144, 1, 3, 3]>(BLOBFILE(path = tensor<string, []>("@model_path/weights/weight.bin"), offset = tensor<uint64, []>(42048)))];
            tensor<fp32, [144]> const_19 = const()[name = tensor<string, []>("const_19"), val = tensor<fp32, [144]>(BLOBFILE(path = tensor<string, []>("@model_path/weights/weight.bin"), offset = tensor<uint64, []>(47296)))];
            tensor<fp32, [1, 144, 56, 56]> sequential_23_mobilenetv2_1_00_224_block_2_depthwise_BN_FusedBatchNormV3_nchw = conv(bias = const_19, dilations = sequential_23_mobilenetv2_1_00_224_block_2_depthwise_depthwisex_dilations_0, groups = sequential_23_mobilenetv2_1_00_224_block_2_depthwise_depthwisex_groups_0, pad = sequential_23_mobilenetv2_1_00_224_block_2_depthwise_depthwisex_pad_0, pad_type = sequential_23_mobilenetv2_1_00_224_block_2_depthwise_depthwisex_pad_type_0, strides = sequential_23_mobilenetv2_1_00_224_block_2_depthwise_depthwisex_strides_0, weight = const_18, x = sequential_23_mobilenetv2_1_00_224_block_2_expand_relu_Relu6)[name = tensor<string, []>("sequential_23_mobilenetv2_1_00_224_block_2_depthwise_BN_FusedBatchNormV3_nchw")];
            tensor<fp32, [1, 144, 56, 56]> sequential_23_mobilenetv2_1_00_224_block_2_depthwise_relu_Relu6 = relu6(x = sequential_23_mobilenetv2_1_00_224_block_2_depthwise_BN_FusedBatchNormV3_nchw)[name = tensor<string, []>("sequential_23_mobilenetv2_1_00_224_block_2_depthwise_relu_Relu6")];
            tensor<string, []> sequential_23_mobilenetv2_1_00_224_block_2_project_Conv2Dx_pad_type_0 = const()[name = tensor<string, []>("sequential_23_mobilenetv2_1_00_224_block_2_project_Conv2Dx_pad_type_0"), val = tensor<string, []>("same")];
            tensor<int32, [2]> sequential_23_mobilenetv2_1_00_224_block_2_project_Conv2Dx_strides_0 = const()[name = tensor<string, []>("sequential_23_mobilenetv2_1_00_224_block_2_project_Conv2Dx_strides_0"), val = tensor<int32, [2]>([1, 1])];
            tensor<int32, [2]> sequential_23_mobilenetv2_1_00_224_block_2_project_Conv2Dx_dilations_0 = const()[name = tensor<string, []>("sequential_23_mobilenetv2_1_00_224_block_2_project_Conv2Dx_dilations_0"), val = tensor<int32, [2]>([1, 1])];
            tensor<int32, []> sequential_23_mobilenetv2_1_00_224_block_2_project_Conv2Dx_groups_0 = const()[name = tensor<string, []>("sequential_23_mobilenetv2_1_00_224_block_2_project_Conv2Dx_groups_0"), val = tensor<int32, []>(1)];
            tensor<int32, [4]> sequential_23_mobilenetv2_1_00_224_block_2_project_Conv2Dx_pad_0 = const()[name = tensor<string, []>("sequential_23_mobilenetv2_1_00_224_block_2_project_Conv2Dx_pad_0"), val = tensor<int32, [4]>([0, 0, 0, 0])];
            tensor<fp32, [24, 144, 1, 1]> const_20 = const()[name = tensor<string, []>("const_20"), val = tensor<fp32, [24, 144, 1, 1]>(BLOBFILE(path = tensor<string, []>("@model_path/weights/weight.bin"), offset = tensor<uint64, []>(47936)))];
            tensor<fp32, [24]> const_21 = const()[name = tensor<string, []>("const_21"), val = tensor<fp32, [24]>(BLOBFILE(path = tensor<string, []>("@model_path/weights/weight.bin"), offset = tensor<uint64, []>(61824)))];
            tensor<fp32, [1, 24, 56, 56]> sequential_23_mobilenetv2_1_00_224_block_2_project_BN_FusedBatchNormV3_nchw = conv(bias = const_21, dilations = sequential_23_mobilenetv2_1_00_224_block_2_project_Conv2Dx_dilations_0, groups = sequential_23_mobilenetv2_1_00_224_block_2_project_Conv2Dx_groups_0, pad = sequential_23_mobilenetv2_1_00_224_block_2_project_Conv2Dx_pad_0, pad_type = sequential_23_mobilenetv2_1_00_224_block_2_project_Conv2Dx_pad_type_0, strides = sequential_23_mobilenetv2_1_00_224_block_2_project_Conv2Dx_strides_0, weight = const_20, x = sequential_23_mobilenetv2_1_00_224_block_2_depthwise_relu_Relu6)[name = tensor<string, []>("sequential_23_mobilenetv2_1_00_224_block_2_project_BN_FusedBatchNormV3_nchw")];
            tensor<fp32, [1, 24, 56, 56]> sequential_23_mobilenetv2_1_00_224_block_2_add_add = add(x = sequential_23_mobilenetv2_1_00_224_block_1_project_BN_FusedBatchNormV3_nchw, y = sequential_23_mobilenetv2_1_00_224_block_2_project_BN_FusedBatchNormV3_nchw)[name = tensor<string, []>("sequential_23_mobilenetv2_1_00_224_block_2_add_add")];
            tensor<string, []> sequential_23_mobilenetv2_1_00_224_block_3_expand_Conv2Dx_pad_type_0 = const()[name = tensor<string, []>("sequential_23_mobilenetv2_1_00_224_block_3_expand_Conv2Dx_pad_type_0"), val = tensor<string, []>("same")];
            tensor<int32, [2]> sequential_23_mobilenetv2_1_00_224_block_3_expand_Conv2Dx_strides_0 = const()[name = tensor<string, []>("sequential_23_mobilenetv2_1_00_224_block_3_expand_Conv2Dx_strides_0"), val = tensor<int32, [2]>([1, 1])];
            tensor<int32, [2]> sequential_23_mobilenetv2_1_00_224_block_3_expand_Conv2Dx_dilations_0 = const()[name = tensor<string, []>("sequential_23_mobilenetv2_1_00_224_block_3_expand_Conv2Dx_dilations_0"), val = tensor<int32, [2]>([1, 1])];
            tensor<int32, []> sequential_23_mobilenetv2_1_00_224_block_3_expand_Conv2Dx_groups_0 = const()[name = tensor<string, []>("sequential_23_mobilenetv2_1_00_224_block_3_expand_Conv2Dx_groups_0"), val = tensor<int32, []>(1)];
            tensor<int32, [4]> sequential_23_mobilenetv2_1_00_224_block_3_expand_Conv2Dx_pad_0 = const()[name = tensor<string, []>("sequential_23_mobilenetv2_1_00_224_block_3_expand_Conv2Dx_pad_0"), val = tensor<int32, [4]>([0, 0, 0, 0])];
            tensor<fp32, [144, 24, 1, 1]> const_22 = const()[name = tensor<string, []>("const_22"), val = tensor<fp32, [144, 24, 1, 1]>(BLOBFILE(path = tensor<string, []>("@model_path/weights/weight.bin"), offset = tensor<uint64, []>(62016)))];
            tensor<fp32, [144]> const_23 = const()[name = tensor<string, []>("const_23"), val = tensor<fp32, [144]>(BLOBFILE(path = tensor<string, []>("@model_path/weights/weight.bin"), offset = tensor<uint64, []>(75904)))];
            tensor<fp32, [1, 144, 56, 56]> sequential_23_mobilenetv2_1_00_224_block_3_expand_BN_FusedBatchNormV3_nchw = conv(bias = const_23, dilations = sequential_23_mobilenetv2_1_00_224_block_3_expand_Conv2Dx_dilations_0, groups = sequential_23_mobilenetv2_1_00_224_block_3_expand_Conv2Dx_groups_0, pad = sequential_23_mobilenetv2_1_00_224_block_3_expand_Conv2Dx_pad_0, pad_type = sequential_23_mobilenetv2_1_00_224_block_3_expand_Conv2Dx_pad_type_0, strides = sequential_23_mobilenetv2_1_00_224_block_3_expand_Conv2Dx_strides_0, weight = const_22, x = sequential_23_mobilenetv2_1_00_224_block_2_add_add)[name = tensor<string, []>("sequential_23_mobilenetv2_1_00_224_block_3_expand_BN_FusedBatchNormV3_nchw")];
            tensor<fp32, [1, 144, 56, 56]> sequential_23_mobilenetv2_1_00_224_block_3_expand_relu_Relu6 = relu6(x = sequential_23_mobilenetv2_1_00_224_block_3_expand_BN_FusedBatchNormV3_nchw)[name = tensor<string, []>("sequential_23_mobilenetv2_1_00_224_block_3_expand_relu_Relu6")];
            tensor<fp32, []> const_1 = const()[name = tensor<string, []>("const_1"), val = tensor<fp32, []>(0x0p+0)];
            tensor<string, []> pad_1_mode_0 = const()[name = tensor<string, []>("pad_1_mode_0"), val = tensor<string, []>("constant")];
            tensor<int32, [8]> pad_5_pad_0 = const()[name = tensor<string, []>("pad_5_pad_0"), val = tensor<int32, [8]>([0, 0, 0, 0, 0, 1, 0, 1])];
            tensor<fp32, [1, 144, 57, 57]> pad_5 = pad(constant_val = const_1, mode = pad_1_mode_0, pad = pad_5_pad_0, x = sequential_23_mobilenetv2_1_00_224_block_3_expand_relu_Relu6)[name = tensor<string, []>("pad_5")];
            tensor<string, []> sequential_23_mobilenetv2_1_00_224_block_3_depthwise_depthwisex_pad_type_0 = const()[name = tensor<string, []>("sequential_23_mobilenetv2_1_00_224_block_3_depthwise_depthwisex_pad_type_0"), val = tensor<string, []>("valid")];
            tensor<int32, [2]> sequential_23_mobilenetv2_1_00_224_block_3_depthwise_depthwisex_strides_0 = const()[name = tensor<string, []>("sequential_23_mobilenetv2_1_00_224_block_3_depthwise_depthwisex_strides_0"), val = tensor<int32, [2]>([2, 2])];
            tensor<int32, [2]> sequential_23_mobilenetv2_1_00_224_block_3_depthwise_depthwisex_dilations_0 = const()[name = tensor<string, []>("sequential_23_mobilenetv2_1_00_224_block_3_depthwise_depthwisex_dilations_0"), val = tensor<int32, [2]>([1, 1])];
            tensor<int32, []> sequential_23_mobilenetv2_1_00_224_block_3_depthwise_depthwisex_groups_0 = const()[name = tensor<string, []>("sequential_23_mobilenetv2_1_00_224_block_3_depthwise_depthwisex_groups_0"), val = tensor<int32, []>(144)];
            tensor<int32, [4]> sequential_23_mobilenetv2_1_00_224_block_3_depthwise_depthwisex_pad_0 = const()[name = tensor<string, []>("sequential_23_mobilenetv2_1_00_224_block_3_depthwise_depthwisex_pad_0"), val = tensor<int32, [4]>([0, 0, 0, 0])];
            tensor<fp32, [144, 1, 3, 3]> const_24 = const()[name = tensor<string, []>("const_24"), val = tensor<fp32, [144, 1, 3, 3]>(BLOBFILE(path = tensor<string, []>("@model_path/weights/weight.bin"), offset = tensor<uint64, []>(76544)))];
            tensor<fp32, [144]> const_25 = const()[name = tensor<string, []>("const_25"), val = tensor<fp32, [144]>(BLOBFILE(path = tensor<string, []>("@model_path/weights/weight.bin"), offset = tensor<uint64, []>(81792)))];
            tensor<fp32, [1, 144, 28, 28]> sequential_23_mobilenetv2_1_00_224_block_3_depthwise_BN_FusedBatchNormV3_nchw = conv(bias = const_25, dilations = sequential_23_mobilenetv2_1_00_224_block_3_depthwise_depthwisex_dilations_0, groups = sequential_23_mobilenetv2_1_00_224_block_3_depthwise_depthwisex_groups_0, pad = sequential_23_mobilenetv2_1_00_224_block_3_depthwise_depthwisex_pad_0, pad_type = sequential_23_mobilenetv2_1_00_224_block_3_depthwise_depthwisex_pad_type_0, strides = sequential_23_mobilenetv2_1_00_224_block_3_depthwise_depthwisex_strides_0, weight = const_24, x = pad_5)[name = tensor<string, []>("sequential_23_mobilenetv2_1_00_224_block_3_depthwise_BN_FusedBatchNormV3_nchw")];
            tensor<fp32, [1, 144, 28, 28]> sequential_23_mobilenetv2_1_00_224_block_3_depthwise_relu_Relu6 = relu6(x = sequential_23_mobilenetv2_1_00_224_block_3_depthwise_BN_FusedBatchNormV3_nchw)[name = tensor<string, []>("sequential_23_mobilenetv2_1_00_224_block_3_depthwise_relu_Relu6")];
            tensor<string, []> sequential_23_mobilenetv2_1_00_224_block_3_project_Conv2Dx_pad_type_0 = const()[name = tensor<string, []>("sequential_23_mobilenetv2_1_00_224_block_3_project_Conv2Dx_pad_type_0"), val = tensor<string, []>("same")];
            tensor<int32, [2]> sequential_23_mobilenetv2_1_00_224_block_3_project_Conv2Dx_strides_0 = const()[name = tensor<string, []>("sequential_23_mobilenetv2_1_00_224_block_3_project_Conv2Dx_strides_0"), val = tensor<int32, [2]>([1, 1])];
            tensor<int32, [2]> sequential_23_mobilenetv2_1_00_224_block_3_project_Conv2Dx_dilations_0 = const()[name = tensor<string, []>("sequential_23_mobilenetv2_1_00_224_block_3_project_Conv2Dx_dilations_0"), val = tensor<int32, [2]>([1, 1])];
            tensor<int32, []> sequential_23_mobilenetv2_1_00_224_block_3_project_Conv2Dx_groups_0 = const()[name = tensor<string, []>("sequential_23_mobilenetv2_1_00_224_block_3_project_Conv2Dx_groups_0"), val = tensor<int32, []>(1)];
            tensor<int32, [4]> sequential_23_mobilenetv2_1_00_224_block_3_project_Conv2Dx_pad_0 = const()[name = tensor<string, []>("sequential_23_mobilenetv2_1_00_224_block_3_project_Conv2Dx_pad_0"), val = tensor<int32, [4]>([0, 0, 0, 0])];
            tensor<fp32, [32, 144, 1, 1]> const_26 = const()[name = tensor<string, []>("const_26"), val = tensor<fp32, [32, 144, 1, 1]>(BLOBFILE(path = tensor<string, []>("@model_path/weights/weight.bin"), offset = tensor<uint64, []>(82432)))];
            tensor<fp32, [32]> const_27 = const()[name = tensor<string, []>("const_27"), val = tensor<fp32, [32]>(BLOBFILE(path = tensor<string, []>("@model_path/weights/weight.bin"), offset = tensor<uint64, []>(100928)))];
            tensor<fp32, [1, 32, 28, 28]> sequential_23_mobilenetv2_1_00_224_block_3_project_BN_FusedBatchNormV3_nchw = conv(bias = const_27, dilations = sequential_23_mobilenetv2_1_00_224_block_3_project_Conv2Dx_dilations_0, groups = sequential_23_mobilenetv2_1_00_224_block_3_project_Conv2Dx_groups_0, pad = sequential_23_mobilenetv2_1_00_224_block_3_project_Conv2Dx_pad_0, pad_type = sequential_23_mobilenetv2_1_00_224_block_3_project_Conv2Dx_pad_type_0, strides = sequential_23_mobilenetv2_1_00_224_block_3_project_Conv2Dx_strides_0, weight = const_26, x = sequential_23_mobilenetv2_1_00_224_block_3_depthwise_relu_Relu6)[name = tensor<string, []>("sequential_23_mobilenetv2_1_00_224_block_3_project_BN_FusedBatchNormV3_nchw")];
            tensor<string, []> sequential_23_mobilenetv2_1_00_224_block_4_expand_Conv2Dx_pad_type_0 = const()[name = tensor<string, []>("sequential_23_mobilenetv2_1_00_224_block_4_expand_Conv2Dx_pad_type_0"), val = tensor<string, []>("same")];
            tensor<int32, [2]> sequential_23_mobilenetv2_1_00_224_block_4_expand_Conv2Dx_strides_0 = const()[name = tensor<string, []>("sequential_23_mobilenetv2_1_00_224_block_4_expand_Conv2Dx_strides_0"), val = tensor<int32, [2]>([1, 1])];
            tensor<int32, [2]> sequential_23_mobilenetv2_1_00_224_block_4_expand_Conv2Dx_dilations_0 = const()[name = tensor<string, []>("sequential_23_mobilenetv2_1_00_224_block_4_expand_Conv2Dx_dilations_0"), val = tensor<int32, [2]>([1, 1])];
            tensor<int32, []> sequential_23_mobilenetv2_1_00_224_block_4_expand_Conv2Dx_groups_0 = const()[name = tensor<string, []>("sequential_23_mobilenetv2_1_00_224_block_4_expand_Conv2Dx_groups_0"), val = tensor<int32, []>(1)];
            tensor<int32, [4]> sequential_23_mobilenetv2_1_00_224_block_4_expand_Conv2Dx_pad_0 = const()[name = tensor<string, []>("sequential_23_mobilenetv2_1_00_224_block_4_expand_Conv2Dx_pad_0"), val = tensor<int32, [4]>([0, 0, 0, 0])];
            tensor<fp32, [192, 32, 1, 1]> const_28 = const()[name = tensor<string, []>("const_28"), val = tensor<fp32, [192, 32, 1, 1]>(BLOBFILE(path = tensor<string, []>("@model_path/weights/weight.bin"), offset = tensor<uint64, []>(101120)))];
            tensor<fp32, [192]> const_29 = const()[name = tensor<string, []>("const_29"), val = tensor<fp32, [192]>(BLOBFILE(path = tensor<string, []>("@model_path/weights/weight.bin"), offset = tensor<uint64, []>(125760)))];
            tensor<fp32, [1, 192, 28, 28]> sequential_23_mobilenetv2_1_00_224_block_4_expand_BN_FusedBatchNormV3_nchw = conv(bias = const_29, dilations = sequential_23_mobilenetv2_1_00_224_block_4_expand_Conv2Dx_dilations_0, groups = sequential_23_mobilenetv2_1_00_224_block_4_expand_Conv2Dx_groups_0, pad = sequential_23_mobilenetv2_1_00_224_block_4_expand_Conv2Dx_pad_0, pad_type = sequential_23_mobilenetv2_1_00_224_block_4_expand_Conv2Dx_pad_type_0, strides = sequential_23_mobilenetv2_1_00_224_block_4_expand_Conv2Dx_strides_0, weight = const_28, x = sequential_23_mobilenetv2_1_00_224_block_3_project_BN_FusedBatchNormV3_nchw)[name = tensor<string, []>("sequential_23_mobilenetv2_1_00_224_block_4_expand_BN_FusedBatchNormV3_nchw")];
            tensor<fp32, [1, 192, 28, 28]> sequential_23_mobilenetv2_1_00_224_block_4_expand_relu_Relu6 = relu6(x = sequential_23_mobilenetv2_1_00_224_block_4_expand_BN_FusedBatchNormV3_nchw)[name = tensor<string, []>("sequential_23_mobilenetv2_1_00_224_block_4_expand_relu_Relu6")];
            tensor<string, []> sequential_23_mobilenetv2_1_00_224_block_4_depthwise_depthwisex_pad_type_0 = const()[name = tensor<string, []>("sequential_23_mobilenetv2_1_00_224_block_4_depthwise_depthwisex_pad_type_0"), val = tensor<string, []>("same")];
            tensor<int32, [2]> sequential_23_mobilenetv2_1_00_224_block_4_depthwise_depthwisex_strides_0 = const()[name = tensor<string, []>("sequential_23_mobilenetv2_1_00_224_block_4_depthwise_depthwisex_strides_0"), val = tensor<int32, [2]>([1, 1])];
            tensor<int32, [2]> sequential_23_mobilenetv2_1_00_224_block_4_depthwise_depthwisex_dilations_0 = const()[name = tensor<string, []>("sequential_23_mobilenetv2_1_00_224_block_4_depthwise_depthwisex_dilations_0"), val = tensor<int32, [2]>([1, 1])];
            tensor<int32, []> sequential_23_mobilenetv2_1_00_224_block_4_depthwise_depthwisex_groups_0 = const()[name = tensor<string, []>("sequential_23_mobilenetv2_1_00_224_block_4_depthwise_depthwisex_groups_0"), val = tensor<int32, []>(192)];
            tensor<int32, [4]> sequential_23_mobilenetv2_1_00_224_block_4_depthwise_depthwisex_pad_0 = const()[name = tensor<string, []>("sequential_23_mobilenetv2_1_00_224_block_4_depthwise_depthwisex_pad_0"), val = tensor<int32, [4]>([0, 0, 0, 0])];
            tensor<fp32, [192, 1, 3, 3]> const_30 = const()[name = tensor<string, []>("const_30"), val = tensor<fp32, [192, 1, 3, 3]>(BLOBFILE(path = tensor<string, []>("@model_path/weights/weight.bin"), offset = tensor<uint64, []>(126592)))];
            tensor<fp32, [192]> const_31 = const()[name = tensor<string, []>("const_31"), val = tensor<fp32, [192]>(BLOBFILE(path = tensor<string, []>("@model_path/weights/weight.bin"), offset = tensor<uint64, []>(133568)))];
            tensor<fp32, [1, 192, 28, 28]> sequential_23_mobilenetv2_1_00_224_block_4_depthwise_BN_FusedBatchNormV3_nchw = conv(bias = const_31, dilations = sequential_23_mobilenetv2_1_00_224_block_4_depthwise_depthwisex_dilations_0, groups = sequential_23_mobilenetv2_1_00_224_block_4_depthwise_depthwisex_groups_0, pad = sequential_23_mobilenetv2_1_00_224_block_4_depthwise_depthwisex_pad_0, pad_type = sequential_23_mobilenetv2_1_00_224_block_4_depthwise_depthwisex_pad_type_0, strides = sequential_23_mobilenetv2_1_00_224_block_4_depthwise_depthwisex_strides_0, weight = const_30, x = sequential_23_mobilenetv2_1_00_224_block_4_expand_relu_Relu6)[name = tensor<string, []>("sequential_23_mobilenetv2_1_00_224_block_4_depthwise_BN_FusedBatchNormV3_nchw")];
            tensor<fp32, [1, 192, 28, 28]> sequential_23_mobilenetv2_1_00_224_block_4_depthwise_relu_Relu6 = relu6(x = sequential_23_mobilenetv2_1_00_224_block_4_depthwise_BN_FusedBatchNormV3_nchw)[name = tensor<string, []>("sequential_23_mobilenetv2_1_00_224_block_4_depthwise_relu_Relu6")];
            tensor<string, []> sequential_23_mobilenetv2_1_00_224_block_4_project_Conv2Dx_pad_type_0 = const()[name = tensor<string, []>("sequential_23_mobilenetv2_1_00_224_block_4_project_Conv2Dx_pad_type_0"), val = tensor<string, []>("same")];
            tensor<int32, [2]> sequential_23_mobilenetv2_1_00_224_block_4_project_Conv2Dx_strides_0 = const()[name = tensor<string, []>("sequential_23_mobilenetv2_1_00_224_block_4_project_Conv2Dx_strides_0"), val = tensor<int32, [2]>([1, 1])];
            tensor<int32, [2]> sequential_23_mobilenetv2_1_00_224_block_4_project_Conv2Dx_dilations_0 = const()[name = tensor<string, []>("sequential_23_mobilenetv2_1_00_224_block_4_project_Conv2Dx_dilations_0"), val = tensor<int32, [2]>([1, 1])];
            tensor<int32, []> sequential_23_mobilenetv2_1_00_224_block_4_project_Conv2Dx_groups_0 = const()[name = tensor<string, []>("sequential_23_mobilenetv2_1_00_224_block_4_project_Conv2Dx_groups_0"), val = tensor<int32, []>(1)];
            tensor<int32, [4]> sequential_23_mobilenetv2_1_00_224_block_4_project_Conv2Dx_pad_0 = const()[name = tensor<string, []>("sequential_23_mobilenetv2_1_00_224_block_4_project_Conv2Dx_pad_0"), val = tensor<int32, [4]>([0, 0, 0, 0])];
            tensor<fp32, [32, 192, 1, 1]> const_32 = const()[name = tensor<string, []>("const_32"), val = tensor<fp32, [32, 192, 1, 1]>(BLOBFILE(path = tensor<string, []>("@model_path/weights/weight.bin"), offset = tensor<uint64, []>(134400)))];
            tensor<fp32, [32]> const_33 = const()[name = tensor<string, []>("const_33"), val = tensor<fp32, [32]>(BLOBFILE(path = tensor<string, []>("@model_path/weights/weight.bin"), offset = tensor<uint64, []>(159040)))];
            tensor<fp32, [1, 32, 28, 28]> sequential_23_mobilenetv2_1_00_224_block_4_project_BN_FusedBatchNormV3_nchw = conv(bias = const_33, dilations = sequential_23_mobilenetv2_1_00_224_block_4_project_Conv2Dx_dilations_0, groups = sequential_23_mobilenetv2_1_00_224_block_4_project_Conv2Dx_groups_0, pad = sequential_23_mobilenetv2_1_00_224_block_4_project_Conv2Dx_pad_0, pad_type = sequential_23_mobilenetv2_1_00_224_block_4_project_Conv2Dx_pad_type_0, strides = sequential_23_mobilenetv2_1_00_224_block_4_project_Conv2Dx_strides_0, weight = const_32, x = sequential_23_mobilenetv2_1_00_224_block_4_depthwise_relu_Relu6)[name = tensor<string, []>("sequential_23_mobilenetv2_1_00_224_block_4_project_BN_FusedBatchNormV3_nchw")];
            tensor<fp32, [1, 32, 28, 28]> sequential_23_mobilenetv2_1_00_224_block_4_add_add = add(x = sequential_23_mobilenetv2_1_00_224_block_3_project_BN_FusedBatchNormV3_nchw, y = sequential_23_mobilenetv2_1_00_224_block_4_project_BN_FusedBatchNormV3_nchw)[name = tensor<string, []>("sequential_23_mobilenetv2_1_00_224_block_4_add_add")];
            tensor<string, []> sequential_23_mobilenetv2_1_00_224_block_5_expand_Conv2Dx_pad_type_0 = const()[name = tensor<string, []>("sequential_23_mobilenetv2_1_00_224_block_5_expand_Conv2Dx_pad_type_0"), val = tensor<string, []>("same")];
            tensor<int32, [2]> sequential_23_mobilenetv2_1_00_224_block_5_expand_Conv2Dx_strides_0 = const()[name = tensor<string, []>("sequential_23_mobilenetv2_1_00_224_block_5_expand_Conv2Dx_strides_0"), val = tensor<int32, [2]>([1, 1])];
            tensor<int32, [2]> sequential_23_mobilenetv2_1_00_224_block_5_expand_Conv2Dx_dilations_0 = const()[name = tensor<string, []>("sequential_23_mobilenetv2_1_00_224_block_5_expand_Conv2Dx_dilations_0"), val = tensor<int32, [2]>([1, 1])];
            tensor<int32, []> sequential_23_mobilenetv2_1_00_224_block_5_expand_Conv2Dx_groups_0 = const()[name = tensor<string, []>("sequential_23_mobilenetv2_1_00_224_block_5_expand_Conv2Dx_groups_0"), val = tensor<int32, []>(1)];
            tensor<int32, [4]> sequential_23_mobilenetv2_1_00_224_block_5_expand_Conv2Dx_pad_0 = const()[name = tensor<string, []>("sequential_23_mobilenetv2_1_00_224_block_5_expand_Conv2Dx_pad_0"), val = tensor<int32, [4]>([0, 0, 0, 0])];
            tensor<fp32, [192, 32, 1, 1]> const_34 = const()[name = tensor<string, []>("const_34"), val = tensor<fp32, [192, 32, 1, 1]>(BLOBFILE(path = tensor<string, []>("@model_path/weights/weight.bin"), offset = tensor<uint64, []>(159232)))];
            tensor<fp32, [192]> const_35 = const()[name = tensor<string, []>("const_35"), val = tensor<fp32, [192]>(BLOBFILE(path = tensor<string, []>("@model_path/weights/weight.bin"), offset = tensor<uint64, []>(183872)))];
            tensor<fp32, [1, 192, 28, 28]> sequential_23_mobilenetv2_1_00_224_block_5_expand_BN_FusedBatchNormV3_nchw = conv(bias = const_35, dilations = sequential_23_mobilenetv2_1_00_224_block_5_expand_Conv2Dx_dilations_0, groups = sequential_23_mobilenetv2_1_00_224_block_5_expand_Conv2Dx_groups_0, pad = sequential_23_mobilenetv2_1_00_224_block_5_expand_Conv2Dx_pad_0, pad_type = sequential_23_mobilenetv2_1_00_224_block_5_expand_Conv2Dx_pad_type_0, strides = sequential_23_mobilenetv2_1_00_224_block_5_expand_Conv2Dx_strides_0, weight = const_34, x = sequential_23_mobilenetv2_1_00_224_block_4_add_add)[name = tensor<string, []>("sequential_23_mobilenetv2_1_00_224_block_5_expand_BN_FusedBatchNormV3_nchw")];
            tensor<fp32, [1, 192, 28, 28]> sequential_23_mobilenetv2_1_00_224_block_5_expand_relu_Relu6 = relu6(x = sequential_23_mobilenetv2_1_00_224_block_5_expand_BN_FusedBatchNormV3_nchw)[name = tensor<string, []>("sequential_23_mobilenetv2_1_00_224_block_5_expand_relu_Relu6")];
            tensor<string, []> sequential_23_mobilenetv2_1_00_224_block_5_depthwise_depthwisex_pad_type_0 = const()[name = tensor<string, []>("sequential_23_mobilenetv2_1_00_224_block_5_depthwise_depthwisex_pad_type_0"), val = tensor<string, []>("same")];
            tensor<int32, [2]> sequential_23_mobilenetv2_1_00_224_block_5_depthwise_depthwisex_strides_0 = const()[name = tensor<string, []>("sequential_23_mobilenetv2_1_00_224_block_5_depthwise_depthwisex_strides_0"), val = tensor<int32, [2]>([1, 1])];
            tensor<int32, [2]> sequential_23_mobilenetv2_1_00_224_block_5_depthwise_depthwisex_dilations_0 = const()[name = tensor<string, []>("sequential_23_mobilenetv2_1_00_224_block_5_depthwise_depthwisex_dilations_0"), val = tensor<int32, [2]>([1, 1])];
            tensor<int32, []> sequential_23_mobilenetv2_1_00_224_block_5_depthwise_depthwisex_groups_0 = const()[name = tensor<string, []>("sequential_23_mobilenetv2_1_00_224_block_5_depthwise_depthwisex_groups_0"), val = tensor<int32, []>(192)];
            tensor<int32, [4]> sequential_23_mobilenetv2_1_00_224_block_5_depthwise_depthwisex_pad_0 = const()[name = tensor<string, []>("sequential_23_mobilenetv2_1_00_224_block_5_depthwise_depthwisex_pad_0"), val = tensor<int32, [4]>([0, 0, 0, 0])];
            tensor<fp32, [192, 1, 3, 3]> const_36 = const()[name = tensor<string, []>("const_36"), val = tensor<fp32, [192, 1, 3, 3]>(BLOBFILE(path = tensor<string, []>("@model_path/weights/weight.bin"), offset = tensor<uint64, []>(184704)))];
            tensor<fp32, [192]> const_37 = const()[name = tensor<string, []>("const_37"), val = tensor<fp32, [192]>(BLOBFILE(path = tensor<string, []>("@model_path/weights/weight.bin"), offset = tensor<uint64, []>(191680)))];
            tensor<fp32, [1, 192, 28, 28]> sequential_23_mobilenetv2_1_00_224_block_5_depthwise_BN_FusedBatchNormV3_nchw = conv(bias = const_37, dilations = sequential_23_mobilenetv2_1_00_224_block_5_depthwise_depthwisex_dilations_0, groups = sequential_23_mobilenetv2_1_00_224_block_5_depthwise_depthwisex_groups_0, pad = sequential_23_mobilenetv2_1_00_224_block_5_depthwise_depthwisex_pad_0, pad_type = sequential_23_mobilenetv2_1_00_224_block_5_depthwise_depthwisex_pad_type_0, strides = sequential_23_mobilenetv2_1_00_224_block_5_depthwise_depthwisex_strides_0, weight = const_36, x = sequential_23_mobilenetv2_1_00_224_block_5_expand_relu_Relu6)[name = tensor<string, []>("sequential_23_mobilenetv2_1_00_224_block_5_depthwise_BN_FusedBatchNormV3_nchw")];
            tensor<fp32, [1, 192, 28, 28]> sequential_23_mobilenetv2_1_00_224_block_5_depthwise_relu_Relu6 = relu6(x = sequential_23_mobilenetv2_1_00_224_block_5_depthwise_BN_FusedBatchNormV3_nchw)[name = tensor<string, []>("sequential_23_mobilenetv2_1_00_224_block_5_depthwise_relu_Relu6")];
            tensor<string, []> sequential_23_mobilenetv2_1_00_224_block_5_project_Conv2Dx_pad_type_0 = const()[name = tensor<string, []>("sequential_23_mobilenetv2_1_00_224_block_5_project_Conv2Dx_pad_type_0"), val = tensor<string, []>("same")];
            tensor<int32, [2]> sequential_23_mobilenetv2_1_00_224_block_5_project_Conv2Dx_strides_0 = const()[name = tensor<string, []>("sequential_23_mobilenetv2_1_00_224_block_5_project_Conv2Dx_strides_0"), val = tensor<int32, [2]>([1, 1])];
            tensor<int32, [2]> sequential_23_mobilenetv2_1_00_224_block_5_project_Conv2Dx_dilations_0 = const()[name = tensor<string, []>("sequential_23_mobilenetv2_1_00_224_block_5_project_Conv2Dx_dilations_0"), val = tensor<int32, [2]>([1, 1])];
            tensor<int32, []> sequential_23_mobilenetv2_1_00_224_block_5_project_Conv2Dx_groups_0 = const()[name = tensor<string, []>("sequential_23_mobilenetv2_1_00_224_block_5_project_Conv2Dx_groups_0"), val = tensor<int32, []>(1)];
            tensor<int32, [4]> sequential_23_mobilenetv2_1_00_224_block_5_project_Conv2Dx_pad_0 = const()[name = tensor<string, []>("sequential_23_mobilenetv2_1_00_224_block_5_project_Conv2Dx_pad_0"), val = tensor<int32, [4]>([0, 0, 0, 0])];
            tensor<fp32, [32, 192, 1, 1]> const_38 = const()[name = tensor<string, []>("const_38"), val = tensor<fp32, [32, 192, 1, 1]>(BLOBFILE(path = tensor<string, []>("@model_path/weights/weight.bin"), offset = tensor<uint64, []>(192512)))];
            tensor<fp32, [32]> const_39 = const()[name = tensor<string, []>("const_39"), val = tensor<fp32, [32]>(BLOBFILE(path = tensor<string, []>("@model_path/weights/weight.bin"), offset = tensor<uint64, []>(217152)))];
            tensor<fp32, [1, 32, 28, 28]> sequential_23_mobilenetv2_1_00_224_block_5_project_BN_FusedBatchNormV3_nchw = conv(bias = const_39, dilations = sequential_23_mobilenetv2_1_00_224_block_5_project_Conv2Dx_dilations_0, groups = sequential_23_mobilenetv2_1_00_224_block_5_project_Conv2Dx_groups_0, pad = sequential_23_mobilenetv2_1_00_224_block_5_project_Conv2Dx_pad_0, pad_type = sequential_23_mobilenetv2_1_00_224_block_5_project_Conv2Dx_pad_type_0, strides = sequential_23_mobilenetv2_1_00_224_block_5_project_Conv2Dx_strides_0, weight = const_38, x = sequential_23_mobilenetv2_1_00_224_block_5_depthwise_relu_Relu6)[name = tensor<string, []>("sequential_23_mobilenetv2_1_00_224_block_5_project_BN_FusedBatchNormV3_nchw")];
            tensor<fp32, [1, 32, 28, 28]> sequential_23_mobilenetv2_1_00_224_block_5_add_add = add(x = sequential_23_mobilenetv2_1_00_224_block_4_add_add, y = sequential_23_mobilenetv2_1_00_224_block_5_project_BN_FusedBatchNormV3_nchw)[name = tensor<string, []>("sequential_23_mobilenetv2_1_00_224_block_5_add_add")];
            tensor<string, []> sequential_23_mobilenetv2_1_00_224_block_6_expand_Conv2Dx_pad_type_0 = const()[name = tensor<string, []>("sequential_23_mobilenetv2_1_00_224_block_6_expand_Conv2Dx_pad_type_0"), val = tensor<string, []>("same")];
            tensor<int32, [2]> sequential_23_mobilenetv2_1_00_224_block_6_expand_Conv2Dx_strides_0 = const()[name = tensor<string, []>("sequential_23_mobilenetv2_1_00_224_block_6_expand_Conv2Dx_strides_0"), val = tensor<int32, [2]>([1, 1])];
            tensor<int32, [2]> sequential_23_mobilenetv2_1_00_224_block_6_expand_Conv2Dx_dilations_0 = const()[name = tensor<string, []>("sequential_23_mobilenetv2_1_00_224_block_6_expand_Conv2Dx_dilations_0"), val = tensor<int32, [2]>([1, 1])];
            tensor<int32, []> sequential_23_mobilenetv2_1_00_224_block_6_expand_Conv2Dx_groups_0 = const()[name = tensor<string, []>("sequential_23_mobilenetv2_1_00_224_block_6_expand_Conv2Dx_groups_0"), val = tensor<int32, []>(1)];
            tensor<int32, [4]> sequential_23_mobilenetv2_1_00_224_block_6_expand_Conv2Dx_pad_0 = const()[name = tensor<string, []>("sequential_23_mobilenetv2_1_00_224_block_6_expand_Conv2Dx_pad_0"), val = tensor<int32, [4]>([0, 0, 0, 0])];
            tensor<fp32, [192, 32, 1, 1]> const_40 = const()[name = tensor<string, []>("const_40"), val = tensor<fp32, [192, 32, 1, 1]>(BLOBFILE(path = tensor<string, []>("@model_path/weights/weight.bin"), offset = tensor<uint64, []>(217344)))];
            tensor<fp32, [192]> const_41 = const()[name = tensor<string, []>("const_41"), val = tensor<fp32, [192]>(BLOBFILE(path = tensor<string, []>("@model_path/weights/weight.bin"), offset = tensor<uint64, []>(241984)))];
            tensor<fp32, [1, 192, 28, 28]> sequential_23_mobilenetv2_1_00_224_block_6_expand_BN_FusedBatchNormV3_nchw = conv(bias = const_41, dilations = sequential_23_mobilenetv2_1_00_224_block_6_expand_Conv2Dx_dilations_0, groups = sequential_23_mobilenetv2_1_00_224_block_6_expand_Conv2Dx_groups_0, pad = sequential_23_mobilenetv2_1_00_224_block_6_expand_Conv2Dx_pad_0, pad_type = sequential_23_mobilenetv2_1_00_224_block_6_expand_Conv2Dx_pad_type_0, strides = sequential_23_mobilenetv2_1_00_224_block_6_expand_Conv2Dx_strides_0, weight = const_40, x = sequential_23_mobilenetv2_1_00_224_block_5_add_add)[name = tensor<string, []>("sequential_23_mobilenetv2_1_00_224_block_6_expand_BN_FusedBatchNormV3_nchw")];
            tensor<fp32, [1, 192, 28, 28]> sequential_23_mobilenetv2_1_00_224_block_6_expand_relu_Relu6 = relu6(x = sequential_23_mobilenetv2_1_00_224_block_6_expand_BN_FusedBatchNormV3_nchw)[name = tensor<string, []>("sequential_23_mobilenetv2_1_00_224_block_6_expand_relu_Relu6")];
            tensor<fp32, []> const_2 = const()[name = tensor<string, []>("const_2"), val = tensor<fp32, []>(0x0p+0)];
            tensor<string, []> pad_2_mode_0 = const()[name = tensor<string, []>("pad_2_mode_0"), val = tensor<string, []>("constant")];
            tensor<int32, [8]> pad_6_pad_0 = const()[name = tensor<string, []>("pad_6_pad_0"), val = tensor<int32, [8]>([0, 0, 0, 0, 0, 1, 0, 1])];
            tensor<fp32, [1, 192, 29, 29]> pad_6 = pad(constant_val = const_2, mode = pad_2_mode_0, pad = pad_6_pad_0, x = sequential_23_mobilenetv2_1_00_224_block_6_expand_relu_Relu6)[name = tensor<string, []>("pad_6")];
            tensor<string, []> sequential_23_mobilenetv2_1_00_224_block_6_depthwise_depthwisex_pad_type_0 = const()[name = tensor<string, []>("sequential_23_mobilenetv2_1_00_224_block_6_depthwise_depthwisex_pad_type_0"), val = tensor<string, []>("valid")];
            tensor<int32, [2]> sequential_23_mobilenetv2_1_00_224_block_6_depthwise_depthwisex_strides_0 = const()[name = tensor<string, []>("sequential_23_mobilenetv2_1_00_224_block_6_depthwise_depthwisex_strides_0"), val = tensor<int32, [2]>([2, 2])];
            tensor<int32, [2]> sequential_23_mobilenetv2_1_00_224_block_6_depthwise_depthwisex_dilations_0 = const()[name = tensor<string, []>("sequential_23_mobilenetv2_1_00_224_block_6_depthwise_depthwisex_dilations_0"), val = tensor<int32, [2]>([1, 1])];
            tensor<int32, []> sequential_23_mobilenetv2_1_00_224_block_6_depthwise_depthwisex_groups_0 = const()[name = tensor<string, []>("sequential_23_mobilenetv2_1_00_224_block_6_depthwise_depthwisex_groups_0"), val = tensor<int32, []>(192)];
            tensor<int32, [4]> sequential_23_mobilenetv2_1_00_224_block_6_depthwise_depthwisex_pad_0 = const()[name = tensor<string, []>("sequential_23_mobilenetv2_1_00_224_block_6_depthwise_depthwisex_pad_0"), val = tensor<int32, [4]>([0, 0, 0, 0])];
            tensor<fp32, [192, 1, 3, 3]> const_42 = const()[name = tensor<string, []>("const_42"), val = tensor<fp32, [192, 1, 3, 3]>(BLOBFILE(path = tensor<string, []>("@model_path/weights/weight.bin"), offset = tensor<uint64, []>(242816)))];
            tensor<fp32, [192]> const_43 = const()[name = tensor<string, []>("const_43"), val = tensor<fp32, [192]>(BLOBFILE(path = tensor<string, []>("@model_path/weights/weight.bin"), offset = tensor<uint64, []>(249792)))];
            tensor<fp32, [1, 192, 14, 14]> sequential_23_mobilenetv2_1_00_224_block_6_depthwise_BN_FusedBatchNormV3_nchw = conv(bias = const_43, dilations = sequential_23_mobilenetv2_1_00_224_block_6_depthwise_depthwisex_dilations_0, groups = sequential_23_mobilenetv2_1_00_224_block_6_depthwise_depthwisex_groups_0, pad = sequential_23_mobilenetv2_1_00_224_block_6_depthwise_depthwisex_pad_0, pad_type = sequential_23_mobilenetv2_1_00_224_block_6_depthwise_depthwisex_pad_type_0, strides = sequential_23_mobilenetv2_1_00_224_block_6_depthwise_depthwisex_strides_0, weight = const_42, x = pad_6)[name = tensor<string, []>("sequential_23_mobilenetv2_1_00_224_block_6_depthwise_BN_FusedBatchNormV3_nchw")];
            tensor<fp32, [1, 192, 14, 14]> sequential_23_mobilenetv2_1_00_224_block_6_depthwise_relu_Relu6 = relu6(x = sequential_23_mobilenetv2_1_00_224_block_6_depthwise_BN_FusedBatchNormV3_nchw)[name = tensor<string, []>("sequential_23_mobilenetv2_1_00_224_block_6_depthwise_relu_Relu6")];
            tensor<string, []> sequential_23_mobilenetv2_1_00_224_block_6_project_Conv2Dx_pad_type_0 = const()[name = tensor<string, []>("sequential_23_mobilenetv2_1_00_224_block_6_project_Conv2Dx_pad_type_0"), val = tensor<string, []>("same")];
            tensor<int32, [2]> sequential_23_mobilenetv2_1_00_224_block_6_project_Conv2Dx_strides_0 = const()[name = tensor<string, []>("sequential_23_mobilenetv2_1_00_224_block_6_project_Conv2Dx_strides_0"), val = tensor<int32, [2]>([1, 1])];
            tensor<int32, [2]> sequential_23_mobilenetv2_1_00_224_block_6_project_Conv2Dx_dilations_0 = const()[name = tensor<string, []>("sequential_23_mobilenetv2_1_00_224_block_6_project_Conv2Dx_dilations_0"), val = tensor<int32, [2]>([1, 1])];
            tensor<int32, []> sequential_23_mobilenetv2_1_00_224_block_6_project_Conv2Dx_groups_0 = const()[name = tensor<string, []>("sequential_23_mobilenetv2_1_00_224_block_6_project_Conv2Dx_groups_0"), val = tensor<int32, []>(1)];
            tensor<int32, [4]> sequential_23_mobilenetv2_1_00_224_block_6_project_Conv2Dx_pad_0 = const()[name = tensor<string, []>("sequential_23_mobilenetv2_1_00_224_block_6_project_Conv2Dx_pad_0"), val = tensor<int32, [4]>([0, 0, 0, 0])];
            tensor<fp32, [64, 192, 1, 1]> const_44 = const()[name = tensor<string, []>("const_44"), val = tensor<fp32, [64, 192, 1, 1]>(BLOBFILE(path = tensor<string, []>("@model_path/weights/weight.bin"), offset = tensor<uint64, []>(250624)))];
            tensor<fp32, [64]> const_45 = const()[name = tensor<string, []>("const_45"), val = tensor<fp32, [64]>(BLOBFILE(path = tensor<string, []>("@model_path/weights/weight.bin"), offset = tensor<uint64, []>(299840)))];
            tensor<fp32, [1, 64, 14, 14]> sequential_23_mobilenetv2_1_00_224_block_6_project_BN_FusedBatchNormV3_nchw = conv(bias = const_45, dilations = sequential_23_mobilenetv2_1_00_224_block_6_project_Conv2Dx_dilations_0, groups = sequential_23_mobilenetv2_1_00_224_block_6_project_Conv2Dx_groups_0, pad = sequential_23_mobilenetv2_1_00_224_block_6_project_Conv2Dx_pad_0, pad_type = sequential_23_mobilenetv2_1_00_224_block_6_project_Conv2Dx_pad_type_0, strides = sequential_23_mobilenetv2_1_00_224_block_6_project_Conv2Dx_strides_0, weight = const_44, x = sequential_23_mobilenetv2_1_00_224_block_6_depthwise_relu_Relu6)[name = tensor<string, []>("sequential_23_mobilenetv2_1_00_224_block_6_project_BN_FusedBatchNormV3_nchw")];
            tensor<string, []> sequential_23_mobilenetv2_1_00_224_block_7_expand_Conv2Dx_pad_type_0 = const()[name = tensor<string, []>("sequential_23_mobilenetv2_1_00_224_block_7_expand_Conv2Dx_pad_type_0"), val = tensor<string, []>("same")];
            tensor<int32, [2]> sequential_23_mobilenetv2_1_00_224_block_7_expand_Conv2Dx_strides_0 = const()[name = tensor<string, []>("sequential_23_mobilenetv2_1_00_224_block_7_expand_Conv2Dx_strides_0"), val = tensor<int32, [2]>([1, 1])];
            tensor<int32, [2]> sequential_23_mobilenetv2_1_00_224_block_7_expand_Conv2Dx_dilations_0 = const()[name = tensor<string, []>("sequential_23_mobilenetv2_1_00_224_block_7_expand_Conv2Dx_dilations_0"), val = tensor<int32, [2]>([1, 1])];
            tensor<int32, []> sequential_23_mobilenetv2_1_00_224_block_7_expand_Conv2Dx_groups_0 = const()[name = tensor<string, []>("sequential_23_mobilenetv2_1_00_224_block_7_expand_Conv2Dx_groups_0"), val = tensor<int32, []>(1)];
            tensor<int32, [4]> sequential_23_mobilenetv2_1_00_224_block_7_expand_Conv2Dx_pad_0 = const()[name = tensor<string, []>("sequential_23_mobilenetv2_1_00_224_block_7_expand_Conv2Dx_pad_0"), val = tensor<int32, [4]>([0, 0, 0, 0])];
            tensor<fp32, [384, 64, 1, 1]> const_46 = const()[name = tensor<string, []>("const_46"), val = tensor<fp32, [384, 64, 1, 1]>(BLOBFILE(path = tensor<string, []>("@model_path/weights/weight.bin"), offset = tensor<uint64, []>(300160)))];
            tensor<fp32, [384]> const_47 = const()[name = tensor<string, []>("const_47"), val = tensor<fp32, [384]>(BLOBFILE(path = tensor<string, []>("@model_path/weights/weight.bin"), offset = tensor<uint64, []>(398528)))];
            tensor<fp32, [1, 384, 14, 14]> sequential_23_mobilenetv2_1_00_224_block_7_expand_BN_FusedBatchNormV3_nchw = conv(bias = const_47, dilations = sequential_23_mobilenetv2_1_00_224_block_7_expand_Conv2Dx_dilations_0, groups = sequential_23_mobilenetv2_1_00_224_block_7_expand_Conv2Dx_groups_0, pad = sequential_23_mobilenetv2_1_00_224_block_7_expand_Conv2Dx_pad_0, pad_type = sequential_23_mobilenetv2_1_00_224_block_7_expand_Conv2Dx_pad_type_0, strides = sequential_23_mobilenetv2_1_00_224_block_7_expand_Conv2Dx_strides_0, weight = const_46, x = sequential_23_mobilenetv2_1_00_224_block_6_project_BN_FusedBatchNormV3_nchw)[name = tensor<string, []>("sequential_23_mobilenetv2_1_00_224_block_7_expand_BN_FusedBatchNormV3_nchw")];
            tensor<fp32, [1, 384, 14, 14]> sequential_23_mobilenetv2_1_00_224_block_7_expand_relu_Relu6 = relu6(x = sequential_23_mobilenetv2_1_00_224_block_7_expand_BN_FusedBatchNormV3_nchw)[name = tensor<string, []>("sequential_23_mobilenetv2_1_00_224_block_7_expand_relu_Relu6")];
            tensor<string, []> sequential_23_mobilenetv2_1_00_224_block_7_depthwise_depthwisex_pad_type_0 = const()[name = tensor<string, []>("sequential_23_mobilenetv2_1_00_224_block_7_depthwise_depthwisex_pad_type_0"), val = tensor<string, []>("same")];
            tensor<int32, [2]> sequential_23_mobilenetv2_1_00_224_block_7_depthwise_depthwisex_strides_0 = const()[name = tensor<string, []>("sequential_23_mobilenetv2_1_00_224_block_7_depthwise_depthwisex_strides_0"), val = tensor<int32, [2]>([1, 1])];
            tensor<int32, [2]> sequential_23_mobilenetv2_1_00_224_block_7_depthwise_depthwisex_dilations_0 = const()[name = tensor<string, []>("sequential_23_mobilenetv2_1_00_224_block_7_depthwise_depthwisex_dilations_0"), val = tensor<int32, [2]>([1, 1])];
            tensor<int32, []> sequential_23_mobilenetv2_1_00_224_block_7_depthwise_depthwisex_groups_0 = const()[name = tensor<string, []>("sequential_23_mobilenetv2_1_00_224_block_7_depthwise_depthwisex_groups_0"), val = tensor<int32, []>(384)];
            tensor<int32, [4]> sequential_23_mobilenetv2_1_00_224_block_7_depthwise_depthwisex_pad_0 = const()[name = tensor<string, []>("sequential_23_mobilenetv2_1_00_224_block_7_depthwise_depthwisex_pad_0"), val = tensor<int32, [4]>([0, 0, 0, 0])];
            tensor<fp32, [384, 1, 3, 3]> const_48 = const()[name = tensor<string, []>("const_48"), val = tensor<fp32, [384, 1, 3, 3]>(BLOBFILE(path = tensor<string, []>("@model_path/weights/weight.bin"), offset = tensor<uint64, []>(400128)))];
            tensor<fp32, [384]> const_49 = const()[name = tensor<string, []>("const_49"), val = tensor<fp32, [384]>(BLOBFILE(path = tensor<string, []>("@model_path/weights/weight.bin"), offset = tensor<uint64, []>(414016)))];
            tensor<fp32, [1, 384, 14, 14]> sequential_23_mobilenetv2_1_00_224_block_7_depthwise_BN_FusedBatchNormV3_nchw = conv(bias = const_49, dilations = sequential_23_mobilenetv2_1_00_224_block_7_depthwise_depthwisex_dilations_0, groups = sequential_23_mobilenetv2_1_00_224_block_7_depthwise_depthwisex_groups_0, pad = sequential_23_mobilenetv2_1_00_224_block_7_depthwise_depthwisex_pad_0, pad_type = sequential_23_mobilenetv2_1_00_224_block_7_depthwise_depthwisex_pad_type_0, strides = sequential_23_mobilenetv2_1_00_224_block_7_depthwise_depthwisex_strides_0, weight = const_48, x = sequential_23_mobilenetv2_1_00_224_block_7_expand_relu_Relu6)[name = tensor<string, []>("sequential_23_mobilenetv2_1_00_224_block_7_depthwise_BN_FusedBatchNormV3_nchw")];
            tensor<fp32, [1, 384, 14, 14]> sequential_23_mobilenetv2_1_00_224_block_7_depthwise_relu_Relu6 = relu6(x = sequential_23_mobilenetv2_1_00_224_block_7_depthwise_BN_FusedBatchNormV3_nchw)[name = tensor<string, []>("sequential_23_mobilenetv2_1_00_224_block_7_depthwise_relu_Relu6")];
            tensor<string, []> sequential_23_mobilenetv2_1_00_224_block_7_project_Conv2Dx_pad_type_0 = const()[name = tensor<string, []>("sequential_23_mobilenetv2_1_00_224_block_7_project_Conv2Dx_pad_type_0"), val = tensor<string, []>("same")];
            tensor<int32, [2]> sequential_23_mobilenetv2_1_00_224_block_7_project_Conv2Dx_strides_0 = const()[name = tensor<string, []>("sequential_23_mobilenetv2_1_00_224_block_7_project_Conv2Dx_strides_0"), val = tensor<int32, [2]>([1, 1])];
            tensor<int32, [2]> sequential_23_mobilenetv2_1_00_224_block_7_project_Conv2Dx_dilations_0 = const()[name = tensor<string, []>("sequential_23_mobilenetv2_1_00_224_block_7_project_Conv2Dx_dilations_0"), val = tensor<int32, [2]>([1, 1])];
            tensor<int32, []> sequential_23_mobilenetv2_1_00_224_block_7_project_Conv2Dx_groups_0 = const()[name = tensor<string, []>("sequential_23_mobilenetv2_1_00_224_block_7_project_Conv2Dx_groups_0"), val = tensor<int32, []>(1)];
            tensor<int32, [4]> sequential_23_mobilenetv2_1_00_224_block_7_project_Conv2Dx_pad_0 = const()[name = tensor<string, []>("sequential_23_mobilenetv2_1_00_224_block_7_project_Conv2Dx_pad_0"), val = tensor<int32, [4]>([0, 0, 0, 0])];
            tensor<fp32, [64, 384, 1, 1]> const_50 = const()[name = tensor<string, []>("const_50"), val = tensor<fp32, [64, 384, 1, 1]>(BLOBFILE(path = tensor<string, []>("@model_path/weights/weight.bin"), offset = tensor<uint64, []>(415616)))];
            tensor<fp32, [64]> const_51 = const()[name = tensor<string, []>("const_51"), val = tensor<fp32, [64]>(BLOBFILE(path = tensor<string, []>("@model_path/weights/weight.bin"), offset = tensor<uint64, []>(513984)))];
            tensor<fp32, [1, 64, 14, 14]> sequential_23_mobilenetv2_1_00_224_block_7_project_BN_FusedBatchNormV3_nchw = conv(bias = const_51, dilations = sequential_23_mobilenetv2_1_00_224_block_7_project_Conv2Dx_dilations_0, groups = sequential_23_mobilenetv2_1_00_224_block_7_project_Conv2Dx_groups_0, pad = sequential_23_mobilenetv2_1_00_224_block_7_project_Conv2Dx_pad_0, pad_type = sequential_23_mobilenetv2_1_00_224_block_7_project_Conv2Dx_pad_type_0, strides = sequential_23_mobilenetv2_1_00_224_block_7_project_Conv2Dx_strides_0, weight = const_50, x = sequential_23_mobilenetv2_1_00_224_block_7_depthwise_relu_Relu6)[name = tensor<string, []>("sequential_23_mobilenetv2_1_00_224_block_7_project_BN_FusedBatchNormV3_nchw")];
            tensor<fp32, [1, 64, 14, 14]> sequential_23_mobilenetv2_1_00_224_block_7_add_add = add(x = sequential_23_mobilenetv2_1_00_224_block_6_project_BN_FusedBatchNormV3_nchw, y = sequential_23_mobilenetv2_1_00_224_block_7_project_BN_FusedBatchNormV3_nchw)[name = tensor<string, []>("sequential_23_mobilenetv2_1_00_224_block_7_add_add")];
            tensor<string, []> sequential_23_mobilenetv2_1_00_224_block_8_expand_Conv2Dx_pad_type_0 = const()[name = tensor<string, []>("sequential_23_mobilenetv2_1_00_224_block_8_expand_Conv2Dx_pad_type_0"), val = tensor<string, []>("same")];
            tensor<int32, [2]> sequential_23_mobilenetv2_1_00_224_block_8_expand_Conv2Dx_strides_0 = const()[name = tensor<string, []>("sequential_23_mobilenetv2_1_00_224_block_8_expand_Conv2Dx_strides_0"), val = tensor<int32, [2]>([1, 1])];
            tensor<int32, [2]> sequential_23_mobilenetv2_1_00_224_block_8_expand_Conv2Dx_dilations_0 = const()[name = tensor<string, []>("sequential_23_mobilenetv2_1_00_224_block_8_expand_Conv2Dx_dilations_0"), val = tensor<int32, [2]>([1, 1])];
            tensor<int32, []> sequential_23_mobilenetv2_1_00_224_block_8_expand_Conv2Dx_groups_0 = const()[name = tensor<string, []>("sequential_23_mobilenetv2_1_00_224_block_8_expand_Conv2Dx_groups_0"), val = tensor<int32, []>(1)];
            tensor<int32, [4]> sequential_23_mobilenetv2_1_00_224_block_8_expand_Conv2Dx_pad_0 = const()[name = tensor<string, []>("sequential_23_mobilenetv2_1_00_224_block_8_expand_Conv2Dx_pad_0"), val = tensor<int32, [4]>([0, 0, 0, 0])];
            tensor<fp32, [384, 64, 1, 1]> const_52 = const()[name = tensor<string, []>("const_52"), val = tensor<fp32, [384, 64, 1, 1]>(BLOBFILE(path = tensor<string, []>("@model_path/weights/weight.bin"), offset = tensor<uint64, []>(514304)))];
            tensor<fp32, [384]> const_53 = const()[name = tensor<string, []>("const_53"), val = tensor<fp32, [384]>(BLOBFILE(path = tensor<string, []>("@model_path/weights/weight.bin"), offset = tensor<uint64, []>(612672)))];
            tensor<fp32, [1, 384, 14, 14]> sequential_23_mobilenetv2_1_00_224_block_8_expand_BN_FusedBatchNormV3_nchw = conv(bias = const_53, dilations = sequential_23_mobilenetv2_1_00_224_block_8_expand_Conv2Dx_dilations_0, groups = sequential_23_mobilenetv2_1_00_224_block_8_expand_Conv2Dx_groups_0, pad = sequential_23_mobilenetv2_1_00_224_block_8_expand_Conv2Dx_pad_0, pad_type = sequential_23_mobilenetv2_1_00_224_block_8_expand_Conv2Dx_pad_type_0, strides = sequential_23_mobilenetv2_1_00_224_block_8_expand_Conv2Dx_strides_0, weight = const_52, x = sequential_23_mobilenetv2_1_00_224_block_7_add_add)[name = tensor<string, []>("sequential_23_mobilenetv2_1_00_224_block_8_expand_BN_FusedBatchNormV3_nchw")];
            tensor<fp32, [1, 384, 14, 14]> sequential_23_mobilenetv2_1_00_224_block_8_expand_relu_Relu6 = relu6(x = sequential_23_mobilenetv2_1_00_224_block_8_expand_BN_FusedBatchNormV3_nchw)[name = tensor<string, []>("sequential_23_mobilenetv2_1_00_224_block_8_expand_relu_Relu6")];
            tensor<string, []> sequential_23_mobilenetv2_1_00_224_block_8_depthwise_depthwisex_pad_type_0 = const()[name = tensor<string, []>("sequential_23_mobilenetv2_1_00_224_block_8_depthwise_depthwisex_pad_type_0"), val = tensor<string, []>("same")];
            tensor<int32, [2]> sequential_23_mobilenetv2_1_00_224_block_8_depthwise_depthwisex_strides_0 = const()[name = tensor<string, []>("sequential_23_mobilenetv2_1_00_224_block_8_depthwise_depthwisex_strides_0"), val = tensor<int32, [2]>([1, 1])];
            tensor<int32, [2]> sequential_23_mobilenetv2_1_00_224_block_8_depthwise_depthwisex_dilations_0 = const()[name = tensor<string, []>("sequential_23_mobilenetv2_1_00_224_block_8_depthwise_depthwisex_dilations_0"), val = tensor<int32, [2]>([1, 1])];
            tensor<int32, []> sequential_23_mobilenetv2_1_00_224_block_8_depthwise_depthwisex_groups_0 = const()[name = tensor<string, []>("sequential_23_mobilenetv2_1_00_224_block_8_depthwise_depthwisex_groups_0"), val = tensor<int32, []>(384)];
            tensor<int32, [4]> sequential_23_mobilenetv2_1_00_224_block_8_depthwise_depthwisex_pad_0 = const()[name = tensor<string, []>("sequential_23_mobilenetv2_1_00_224_block_8_depthwise_depthwisex_pad_0"), val = tensor<int32, [4]>([0, 0, 0, 0])];
            tensor<fp32, [384, 1, 3, 3]> const_54 = const()[name = tensor<string, []>("const_54"), val = tensor<fp32, [384, 1, 3, 3]>(BLOBFILE(path = tensor<string, []>("@model_path/weights/weight.bin"), offset = tensor<uint64, []>(614272)))];
            tensor<fp32, [384]> const_55 = const()[name = tensor<string, []>("const_55"), val = tensor<fp32, [384]>(BLOBFILE(path = tensor<string, []>("@model_path/weights/weight.bin"), offset = tensor<uint64, []>(628160)))];
            tensor<fp32, [1, 384, 14, 14]> sequential_23_mobilenetv2_1_00_224_block_8_depthwise_BN_FusedBatchNormV3_nchw = conv(bias = const_55, dilations = sequential_23_mobilenetv2_1_00_224_block_8_depthwise_depthwisex_dilations_0, groups = sequential_23_mobilenetv2_1_00_224_block_8_depthwise_depthwisex_groups_0, pad = sequential_23_mobilenetv2_1_00_224_block_8_depthwise_depthwisex_pad_0, pad_type = sequential_23_mobilenetv2_1_00_224_block_8_depthwise_depthwisex_pad_type_0, strides = sequential_23_mobilenetv2_1_00_224_block_8_depthwise_depthwisex_strides_0, weight = const_54, x = sequential_23_mobilenetv2_1_00_224_block_8_expand_relu_Relu6)[name = tensor<string, []>("sequential_23_mobilenetv2_1_00_224_block_8_depthwise_BN_FusedBatchNormV3_nchw")];
            tensor<fp32, [1, 384, 14, 14]> sequential_23_mobilenetv2_1_00_224_block_8_depthwise_relu_Relu6 = relu6(x = sequential_23_mobilenetv2_1_00_224_block_8_depthwise_BN_FusedBatchNormV3_nchw)[name = tensor<string, []>("sequential_23_mobilenetv2_1_00_224_block_8_depthwise_relu_Relu6")];
            tensor<string, []> sequential_23_mobilenetv2_1_00_224_block_8_project_Conv2Dx_pad_type_0 = const()[name = tensor<string, []>("sequential_23_mobilenetv2_1_00_224_block_8_project_Conv2Dx_pad_type_0"), val = tensor<string, []>("same")];
            tensor<int32, [2]> sequential_23_mobilenetv2_1_00_224_block_8_project_Conv2Dx_strides_0 = const()[name = tensor<string, []>("sequential_23_mobilenetv2_1_00_224_block_8_project_Conv2Dx_strides_0"), val = tensor<int32, [2]>([1, 1])];
            tensor<int32, [2]> sequential_23_mobilenetv2_1_00_224_block_8_project_Conv2Dx_dilations_0 = const()[name = tensor<string, []>("sequential_23_mobilenetv2_1_00_224_block_8_project_Conv2Dx_dilations_0"), val = tensor<int32, [2]>([1, 1])];
            tensor<int32, []> sequential_23_mobilenetv2_1_00_224_block_8_project_Conv2Dx_groups_0 = const()[name = tensor<string, []>("sequential_23_mobilenetv2_1_00_224_block_8_project_Conv2Dx_groups_0"), val = tensor<int32, []>(1)];
            tensor<int32, [4]> sequential_23_mobilenetv2_1_00_224_block_8_project_Conv2Dx_pad_0 = const()[name = tensor<string, []>("sequential_23_mobilenetv2_1_00_224_block_8_project_Conv2Dx_pad_0"), val = tensor<int32, [4]>([0, 0, 0, 0])];
            tensor<fp32, [64, 384, 1, 1]> const_56 = const()[name = tensor<string, []>("const_56"), val = tensor<fp32, [64, 384, 1, 1]>(BLOBFILE(path = tensor<string, []>("@model_path/weights/weight.bin"), offset = tensor<uint64, []>(629760)))];
            tensor<fp32, [64]> const_57 = const()[name = tensor<string, []>("const_57"), val = tensor<fp32, [64]>(BLOBFILE(path = tensor<string, []>("@model_path/weights/weight.bin"), offset = tensor<uint64, []>(728128)))];
            tensor<fp32, [1, 64, 14, 14]> sequential_23_mobilenetv2_1_00_224_block_8_project_BN_FusedBatchNormV3_nchw = conv(bias = const_57, dilations = sequential_23_mobilenetv2_1_00_224_block_8_project_Conv2Dx_dilations_0, groups = sequential_23_mobilenetv2_1_00_224_block_8_project_Conv2Dx_groups_0, pad = sequential_23_mobilenetv2_1_00_224_block_8_project_Conv2Dx_pad_0, pad_type = sequential_23_mobilenetv2_1_00_224_block_8_project_Conv2Dx_pad_type_0, strides = sequential_23_mobilenetv2_1_00_224_block_8_project_Conv2Dx_strides_0, weight = const_56, x = sequential_23_mobilenetv2_1_00_224_block_8_depthwise_relu_Relu6)[name = tensor<string, []>("sequential_23_mobilenetv2_1_00_224_block_8_project_BN_FusedBatchNormV3_nchw")];
            tensor<fp32, [1, 64, 14, 14]> sequential_23_mobilenetv2_1_00_224_block_8_add_add = add(x = sequential_23_mobilenetv2_1_00_224_block_7_add_add, y = sequential_23_mobilenetv2_1_00_224_block_8_project_BN_FusedBatchNormV3_nchw)[name = tensor<string, []>("sequential_23_mobilenetv2_1_00_224_block_8_add_add")];
            tensor<string, []> sequential_23_mobilenetv2_1_00_224_block_9_expand_Conv2Dx_pad_type_0 = const()[name = tensor<string, []>("sequential_23_mobilenetv2_1_00_224_block_9_expand_Conv2Dx_pad_type_0"), val = tensor<string, []>("same")];
            tensor<int32, [2]> sequential_23_mobilenetv2_1_00_224_block_9_expand_Conv2Dx_strides_0 = const()[name = tensor<string, []>("sequential_23_mobilenetv2_1_00_224_block_9_expand_Conv2Dx_strides_0"), val = tensor<int32, [2]>([1, 1])];
            tensor<int32, [2]> sequential_23_mobilenetv2_1_00_224_block_9_expand_Conv2Dx_dilations_0 = const()[name = tensor<string, []>("sequential_23_mobilenetv2_1_00_224_block_9_expand_Conv2Dx_dilations_0"), val = tensor<int32, [2]>([1, 1])];
            tensor<int32, []> sequential_23_mobilenetv2_1_00_224_block_9_expand_Conv2Dx_groups_0 = const()[name = tensor<string, []>("sequential_23_mobilenetv2_1_00_224_block_9_expand_Conv2Dx_groups_0"), val = tensor<int32, []>(1)];
            tensor<int32, [4]> sequential_23_mobilenetv2_1_00_224_block_9_expand_Conv2Dx_pad_0 = const()[name = tensor<string, []>("sequential_23_mobilenetv2_1_00_224_block_9_expand_Conv2Dx_pad_0"), val = tensor<int32, [4]>([0, 0, 0, 0])];
            tensor<fp32, [384, 64, 1, 1]> const_58 = const()[name = tensor<string, []>("const_58"), val = tensor<fp32, [384, 64, 1, 1]>(BLOBFILE(path = tensor<string, []>("@model_path/weights/weight.bin"), offset = tensor<uint64, []>(728448)))];
            tensor<fp32, [384]> const_59 = const()[name = tensor<string, []>("const_59"), val = tensor<fp32, [384]>(BLOBFILE(path = tensor<string, []>("@model_path/weights/weight.bin"), offset = tensor<uint64, []>(826816)))];
            tensor<fp32, [1, 384, 14, 14]> sequential_23_mobilenetv2_1_00_224_block_9_expand_BN_FusedBatchNormV3_nchw = conv(bias = const_59, dilations = sequential_23_mobilenetv2_1_00_224_block_9_expand_Conv2Dx_dilations_0, groups = sequential_23_mobilenetv2_1_00_224_block_9_expand_Conv2Dx_groups_0, pad = sequential_23_mobilenetv2_1_00_224_block_9_expand_Conv2Dx_pad_0, pad_type = sequential_23_mobilenetv2_1_00_224_block_9_expand_Conv2Dx_pad_type_0, strides = sequential_23_mobilenetv2_1_00_224_block_9_expand_Conv2Dx_strides_0, weight = const_58, x = sequential_23_mobilenetv2_1_00_224_block_8_add_add)[name = tensor<string, []>("sequential_23_mobilenetv2_1_00_224_block_9_expand_BN_FusedBatchNormV3_nchw")];
            tensor<fp32, [1, 384, 14, 14]> sequential_23_mobilenetv2_1_00_224_block_9_expand_relu_Relu6 = relu6(x = sequential_23_mobilenetv2_1_00_224_block_9_expand_BN_FusedBatchNormV3_nchw)[name = tensor<string, []>("sequential_23_mobilenetv2_1_00_224_block_9_expand_relu_Relu6")];
            tensor<string, []> sequential_23_mobilenetv2_1_00_224_block_9_depthwise_depthwisex_pad_type_0 = const()[name = tensor<string, []>("sequential_23_mobilenetv2_1_00_224_block_9_depthwise_depthwisex_pad_type_0"), val = tensor<string, []>("same")];
            tensor<int32, [2]> sequential_23_mobilenetv2_1_00_224_block_9_depthwise_depthwisex_strides_0 = const()[name = tensor<string, []>("sequential_23_mobilenetv2_1_00_224_block_9_depthwise_depthwisex_strides_0"), val = tensor<int32, [2]>([1, 1])];
            tensor<int32, [2]> sequential_23_mobilenetv2_1_00_224_block_9_depthwise_depthwisex_dilations_0 = const()[name = tensor<string, []>("sequential_23_mobilenetv2_1_00_224_block_9_depthwise_depthwisex_dilations_0"), val = tensor<int32, [2]>([1, 1])];
            tensor<int32, []> sequential_23_mobilenetv2_1_00_224_block_9_depthwise_depthwisex_groups_0 = const()[name = tensor<string, []>("sequential_23_mobilenetv2_1_00_224_block_9_depthwise_depthwisex_groups_0"), val = tensor<int32, []>(384)];
            tensor<int32, [4]> sequential_23_mobilenetv2_1_00_224_block_9_depthwise_depthwisex_pad_0 = const()[name = tensor<string, []>("sequential_23_mobilenetv2_1_00_224_block_9_depthwise_depthwisex_pad_0"), val = tensor<int32, [4]>([0, 0, 0, 0])];
            tensor<fp32, [384, 1, 3, 3]> const_60 = const()[name = tensor<string, []>("const_60"), val = tensor<fp32, [384, 1, 3, 3]>(BLOBFILE(path = tensor<string, []>("@model_path/weights/weight.bin"), offset = tensor<uint64, []>(828416)))];
            tensor<fp32, [384]> const_61 = const()[name = tensor<string, []>("const_61"), val = tensor<fp32, [384]>(BLOBFILE(path = tensor<string, []>("@model_path/weights/weight.bin"), offset = tensor<uint64, []>(842304)))];
            tensor<fp32, [1, 384, 14, 14]> sequential_23_mobilenetv2_1_00_224_block_9_depthwise_BN_FusedBatchNormV3_nchw = conv(bias = const_61, dilations = sequential_23_mobilenetv2_1_00_224_block_9_depthwise_depthwisex_dilations_0, groups = sequential_23_mobilenetv2_1_00_224_block_9_depthwise_depthwisex_groups_0, pad = sequential_23_mobilenetv2_1_00_224_block_9_depthwise_depthwisex_pad_0, pad_type = sequential_23_mobilenetv2_1_00_224_block_9_depthwise_depthwisex_pad_type_0, strides = sequential_23_mobilenetv2_1_00_224_block_9_depthwise_depthwisex_strides_0, weight = const_60, x = sequential_23_mobilenetv2_1_00_224_block_9_expand_relu_Relu6)[name = tensor<string, []>("sequential_23_mobilenetv2_1_00_224_block_9_depthwise_BN_FusedBatchNormV3_nchw")];
            tensor<fp32, [1, 384, 14, 14]> sequential_23_mobilenetv2_1_00_224_block_9_depthwise_relu_Relu6 = relu6(x = sequential_23_mobilenetv2_1_00_224_block_9_depthwise_BN_FusedBatchNormV3_nchw)[name = tensor<string, []>("sequential_23_mobilenetv2_1_00_224_block_9_depthwise_relu_Relu6")];
            tensor<string, []> sequential_23_mobilenetv2_1_00_224_block_9_project_Conv2Dx_pad_type_0 = const()[name = tensor<string, []>("sequential_23_mobilenetv2_1_00_224_block_9_project_Conv2Dx_pad_type_0"), val = tensor<string, []>("same")];
            tensor<int32, [2]> sequential_23_mobilenetv2_1_00_224_block_9_project_Conv2Dx_strides_0 = const()[name = tensor<string, []>("sequential_23_mobilenetv2_1_00_224_block_9_project_Conv2Dx_strides_0"), val = tensor<int32, [2]>([1, 1])];
            tensor<int32, [2]> sequential_23_mobilenetv2_1_00_224_block_9_project_Conv2Dx_dilations_0 = const()[name = tensor<string, []>("sequential_23_mobilenetv2_1_00_224_block_9_project_Conv2Dx_dilations_0"), val = tensor<int32, [2]>([1, 1])];
            tensor<int32, []> sequential_23_mobilenetv2_1_00_224_block_9_project_Conv2Dx_groups_0 = const()[name = tensor<string, []>("sequential_23_mobilenetv2_1_00_224_block_9_project_Conv2Dx_groups_0"), val = tensor<int32, []>(1)];
            tensor<int32, [4]> sequential_23_mobilenetv2_1_00_224_block_9_project_Conv2Dx_pad_0 = const()[name = tensor<string, []>("sequential_23_mobilenetv2_1_00_224_block_9_project_Conv2Dx_pad_0"), val = tensor<int32, [4]>([0, 0, 0, 0])];
            tensor<fp32, [64, 384, 1, 1]> const_62 = const()[name = tensor<string, []>("const_62"), val = tensor<fp32, [64, 384, 1, 1]>(BLOBFILE(path = tensor<string, []>("@model_path/weights/weight.bin"), offset = tensor<uint64, []>(843904)))];
            tensor<fp32, [64]> const_63 = const()[name = tensor<string, []>("const_63"), val = tensor<fp32, [64]>(BLOBFILE(path = tensor<string, []>("@model_path/weights/weight.bin"), offset = tensor<uint64, []>(942272)))];
            tensor<fp32, [1, 64, 14, 14]> sequential_23_mobilenetv2_1_00_224_block_9_project_BN_FusedBatchNormV3_nchw = conv(bias = const_63, dilations = sequential_23_mobilenetv2_1_00_224_block_9_project_Conv2Dx_dilations_0, groups = sequential_23_mobilenetv2_1_00_224_block_9_project_Conv2Dx_groups_0, pad = sequential_23_mobilenetv2_1_00_224_block_9_project_Conv2Dx_pad_0, pad_type = sequential_23_mobilenetv2_1_00_224_block_9_project_Conv2Dx_pad_type_0, strides = sequential_23_mobilenetv2_1_00_224_block_9_project_Conv2Dx_strides_0, weight = const_62, x = sequential_23_mobilenetv2_1_00_224_block_9_depthwise_relu_Relu6)[name = tensor<string, []>("sequential_23_mobilenetv2_1_00_224_block_9_project_BN_FusedBatchNormV3_nchw")];
            tensor<fp32, [1, 64, 14, 14]> sequential_23_mobilenetv2_1_00_224_block_9_add_add = add(x = sequential_23_mobilenetv2_1_00_224_block_8_add_add, y = sequential_23_mobilenetv2_1_00_224_block_9_project_BN_FusedBatchNormV3_nchw)[name = tensor<string, []>("sequential_23_mobilenetv2_1_00_224_block_9_add_add")];
            tensor<string, []> sequential_23_mobilenetv2_1_00_224_block_10_expand_Conv2Dx_pad_type_0 = const()[name = tensor<string, []>("sequential_23_mobilenetv2_1_00_224_block_10_expand_Conv2Dx_pad_type_0"), val = tensor<string, []>("same")];
            tensor<int32, [2]> sequential_23_mobilenetv2_1_00_224_block_10_expand_Conv2Dx_strides_0 = const()[name = tensor<string, []>("sequential_23_mobilenetv2_1_00_224_block_10_expand_Conv2Dx_strides_0"), val = tensor<int32, [2]>([1, 1])];
            tensor<int32, [2]> sequential_23_mobilenetv2_1_00_224_block_10_expand_Conv2Dx_dilations_0 = const()[name = tensor<string, []>("sequential_23_mobilenetv2_1_00_224_block_10_expand_Conv2Dx_dilations_0"), val = tensor<int32, [2]>([1, 1])];
            tensor<int32, []> sequential_23_mobilenetv2_1_00_224_block_10_expand_Conv2Dx_groups_0 = const()[name = tensor<string, []>("sequential_23_mobilenetv2_1_00_224_block_10_expand_Conv2Dx_groups_0"), val = tensor<int32, []>(1)];
            tensor<int32, [4]> sequential_23_mobilenetv2_1_00_224_block_10_expand_Conv2Dx_pad_0 = const()[name = tensor<string, []>("sequential_23_mobilenetv2_1_00_224_block_10_expand_Conv2Dx_pad_0"), val = tensor<int32, [4]>([0, 0, 0, 0])];
            tensor<fp32, [384, 64, 1, 1]> const_64 = const()[name = tensor<string, []>("const_64"), val = tensor<fp32, [384, 64, 1, 1]>(BLOBFILE(path = tensor<string, []>("@model_path/weights/weight.bin"), offset = tensor<uint64, []>(942592)))];
            tensor<fp32, [384]> const_65 = const()[name = tensor<string, []>("const_65"), val = tensor<fp32, [384]>(BLOBFILE(path = tensor<string, []>("@model_path/weights/weight.bin"), offset = tensor<uint64, []>(1040960)))];
            tensor<fp32, [1, 384, 14, 14]> sequential_23_mobilenetv2_1_00_224_block_10_expand_BN_FusedBatchNormV3_nchw = conv(bias = const_65, dilations = sequential_23_mobilenetv2_1_00_224_block_10_expand_Conv2Dx_dilations_0, groups = sequential_23_mobilenetv2_1_00_224_block_10_expand_Conv2Dx_groups_0, pad = sequential_23_mobilenetv2_1_00_224_block_10_expand_Conv2Dx_pad_0, pad_type = sequential_23_mobilenetv2_1_00_224_block_10_expand_Conv2Dx_pad_type_0, strides = sequential_23_mobilenetv2_1_00_224_block_10_expand_Conv2Dx_strides_0, weight = const_64, x = sequential_23_mobilenetv2_1_00_224_block_9_add_add)[name = tensor<string, []>("sequential_23_mobilenetv2_1_00_224_block_10_expand_BN_FusedBatchNormV3_nchw")];
            tensor<fp32, [1, 384, 14, 14]> sequential_23_mobilenetv2_1_00_224_block_10_expand_relu_Relu6 = relu6(x = sequential_23_mobilenetv2_1_00_224_block_10_expand_BN_FusedBatchNormV3_nchw)[name = tensor<string, []>("sequential_23_mobilenetv2_1_00_224_block_10_expand_relu_Relu6")];
            tensor<string, []> sequential_23_mobilenetv2_1_00_224_block_10_depthwise_depthwisex_pad_type_0 = const()[name = tensor<string, []>("sequential_23_mobilenetv2_1_00_224_block_10_depthwise_depthwisex_pad_type_0"), val = tensor<string, []>("same")];
            tensor<int32, [2]> sequential_23_mobilenetv2_1_00_224_block_10_depthwise_depthwisex_strides_0 = const()[name = tensor<string, []>("sequential_23_mobilenetv2_1_00_224_block_10_depthwise_depthwisex_strides_0"), val = tensor<int32, [2]>([1, 1])];
            tensor<int32, [2]> sequential_23_mobilenetv2_1_00_224_block_10_depthwise_depthwisex_dilations_0 = const()[name = tensor<string, []>("sequential_23_mobilenetv2_1_00_224_block_10_depthwise_depthwisex_dilations_0"), val = tensor<int32, [2]>([1, 1])];
            tensor<int32, []> sequential_23_mobilenetv2_1_00_224_block_10_depthwise_depthwisex_groups_0 = const()[name = tensor<string, []>("sequential_23_mobilenetv2_1_00_224_block_10_depthwise_depthwisex_groups_0"), val = tensor<int32, []>(384)];
            tensor<int32, [4]> sequential_23_mobilenetv2_1_00_224_block_10_depthwise_depthwisex_pad_0 = const()[name = tensor<string, []>("sequential_23_mobilenetv2_1_00_224_block_10_depthwise_depthwisex_pad_0"), val = tensor<int32, [4]>([0, 0, 0, 0])];
            tensor<fp32, [384, 1, 3, 3]> const_66 = const()[name = tensor<string, []>("const_66"), val = tensor<fp32, [384, 1, 3, 3]>(BLOBFILE(path = tensor<string, []>("@model_path/weights/weight.bin"), offset = tensor<uint64, []>(1042560)))];
            tensor<fp32, [384]> const_67 = const()[name = tensor<string, []>("const_67"), val = tensor<fp32, [384]>(BLOBFILE(path = tensor<string, []>("@model_path/weights/weight.bin"), offset = tensor<uint64, []>(1056448)))];
            tensor<fp32, [1, 384, 14, 14]> sequential_23_mobilenetv2_1_00_224_block_10_depthwise_BN_FusedBatchNormV3_nchw = conv(bias = const_67, dilations = sequential_23_mobilenetv2_1_00_224_block_10_depthwise_depthwisex_dilations_0, groups = sequential_23_mobilenetv2_1_00_224_block_10_depthwise_depthwisex_groups_0, pad = sequential_23_mobilenetv2_1_00_224_block_10_depthwise_depthwisex_pad_0, pad_type = sequential_23_mobilenetv2_1_00_224_block_10_depthwise_depthwisex_pad_type_0, strides = sequential_23_mobilenetv2_1_00_224_block_10_depthwise_depthwisex_strides_0, weight = const_66, x = sequential_23_mobilenetv2_1_00_224_block_10_expand_relu_Relu6)[name = tensor<string, []>("sequential_23_mobilenetv2_1_00_224_block_10_depthwise_BN_FusedBatchNormV3_nchw")];
            tensor<fp32, [1, 384, 14, 14]> sequential_23_mobilenetv2_1_00_224_block_10_depthwise_relu_Relu6 = relu6(x = sequential_23_mobilenetv2_1_00_224_block_10_depthwise_BN_FusedBatchNormV3_nchw)[name = tensor<string, []>("sequential_23_mobilenetv2_1_00_224_block_10_depthwise_relu_Relu6")];
            tensor<string, []> sequential_23_mobilenetv2_1_00_224_block_10_project_Conv2Dx_pad_type_0 = const()[name = tensor<string, []>("sequential_23_mobilenetv2_1_00_224_block_10_project_Conv2Dx_pad_type_0"), val = tensor<string, []>("same")];
            tensor<int32, [2]> sequential_23_mobilenetv2_1_00_224_block_10_project_Conv2Dx_strides_0 = const()[name = tensor<string, []>("sequential_23_mobilenetv2_1_00_224_block_10_project_Conv2Dx_strides_0"), val = tensor<int32, [2]>([1, 1])];
            tensor<int32, [2]> sequential_23_mobilenetv2_1_00_224_block_10_project_Conv2Dx_dilations_0 = const()[name = tensor<string, []>("sequential_23_mobilenetv2_1_00_224_block_10_project_Conv2Dx_dilations_0"), val = tensor<int32, [2]>([1, 1])];
            tensor<int32, []> sequential_23_mobilenetv2_1_00_224_block_10_project_Conv2Dx_groups_0 = const()[name = tensor<string, []>("sequential_23_mobilenetv2_1_00_224_block_10_project_Conv2Dx_groups_0"), val = tensor<int32, []>(1)];
            tensor<int32, [4]> sequential_23_mobilenetv2_1_00_224_block_10_project_Conv2Dx_pad_0 = const()[name = tensor<string, []>("sequential_23_mobilenetv2_1_00_224_block_10_project_Conv2Dx_pad_0"), val = tensor<int32, [4]>([0, 0, 0, 0])];
            tensor<fp32, [96, 384, 1, 1]> const_68 = const()[name = tensor<string, []>("const_68"), val = tensor<fp32, [96, 384, 1, 1]>(BLOBFILE(path = tensor<string, []>("@model_path/weights/weight.bin"), offset = tensor<uint64, []>(1058048)))];
            tensor<fp32, [96]> const_69 = const()[name = tensor<string, []>("const_69"), val = tensor<fp32, [96]>(BLOBFILE(path = tensor<string, []>("@model_path/weights/weight.bin"), offset = tensor<uint64, []>(1205568)))];
            tensor<fp32, [1, 96, 14, 14]> sequential_23_mobilenetv2_1_00_224_block_10_project_BN_FusedBatchNormV3_nchw = conv(bias = const_69, dilations = sequential_23_mobilenetv2_1_00_224_block_10_project_Conv2Dx_dilations_0, groups = sequential_23_mobilenetv2_1_00_224_block_10_project_Conv2Dx_groups_0, pad = sequential_23_mobilenetv2_1_00_224_block_10_project_Conv2Dx_pad_0, pad_type = sequential_23_mobilenetv2_1_00_224_block_10_project_Conv2Dx_pad_type_0, strides = sequential_23_mobilenetv2_1_00_224_block_10_project_Conv2Dx_strides_0, weight = const_68, x = sequential_23_mobilenetv2_1_00_224_block_10_depthwise_relu_Relu6)[name = tensor<string, []>("sequential_23_mobilenetv2_1_00_224_block_10_project_BN_FusedBatchNormV3_nchw")];
            tensor<string, []> sequential_23_mobilenetv2_1_00_224_block_11_expand_Conv2Dx_pad_type_0 = const()[name = tensor<string, []>("sequential_23_mobilenetv2_1_00_224_block_11_expand_Conv2Dx_pad_type_0"), val = tensor<string, []>("same")];
            tensor<int32, [2]> sequential_23_mobilenetv2_1_00_224_block_11_expand_Conv2Dx_strides_0 = const()[name = tensor<string, []>("sequential_23_mobilenetv2_1_00_224_block_11_expand_Conv2Dx_strides_0"), val = tensor<int32, [2]>([1, 1])];
            tensor<int32, [2]> sequential_23_mobilenetv2_1_00_224_block_11_expand_Conv2Dx_dilations_0 = const()[name = tensor<string, []>("sequential_23_mobilenetv2_1_00_224_block_11_expand_Conv2Dx_dilations_0"), val = tensor<int32, [2]>([1, 1])];
            tensor<int32, []> sequential_23_mobilenetv2_1_00_224_block_11_expand_Conv2Dx_groups_0 = const()[name = tensor<string, []>("sequential_23_mobilenetv2_1_00_224_block_11_expand_Conv2Dx_groups_0"), val = tensor<int32, []>(1)];
            tensor<int32, [4]> sequential_23_mobilenetv2_1_00_224_block_11_expand_Conv2Dx_pad_0 = const()[name = tensor<string, []>("sequential_23_mobilenetv2_1_00_224_block_11_expand_Conv2Dx_pad_0"), val = tensor<int32, [4]>([0, 0, 0, 0])];
            tensor<fp32, [576, 96, 1, 1]> const_70 = const()[name = tensor<string, []>("const_70"), val = tensor<fp32, [576, 96, 1, 1]>(BLOBFILE(path = tensor<string, []>("@model_path/weights/weight.bin"), offset = tensor<uint64, []>(1206016)))];
            tensor<fp32, [576]> const_71 = const()[name = tensor<string, []>("const_71"), val = tensor<fp32, [576]>(BLOBFILE(path = tensor<string, []>("@model_path/weights/weight.bin"), offset = tensor<uint64, []>(1427264)))];
            tensor<fp32, [1, 576, 14, 14]> sequential_23_mobilenetv2_1_00_224_block_11_expand_BN_FusedBatchNormV3_nchw = conv(bias = const_71, dilations = sequential_23_mobilenetv2_1_00_224_block_11_expand_Conv2Dx_dilations_0, groups = sequential_23_mobilenetv2_1_00_224_block_11_expand_Conv2Dx_groups_0, pad = sequential_23_mobilenetv2_1_00_224_block_11_expand_Conv2Dx_pad_0, pad_type = sequential_23_mobilenetv2_1_00_224_block_11_expand_Conv2Dx_pad_type_0, strides = sequential_23_mobilenetv2_1_00_224_block_11_expand_Conv2Dx_strides_0, weight = const_70, x = sequential_23_mobilenetv2_1_00_224_block_10_project_BN_FusedBatchNormV3_nchw)[name = tensor<string, []>("sequential_23_mobilenetv2_1_00_224_block_11_expand_BN_FusedBatchNormV3_nchw")];
            tensor<fp32, [1, 576, 14, 14]> sequential_23_mobilenetv2_1_00_224_block_11_expand_relu_Relu6 = relu6(x = sequential_23_mobilenetv2_1_00_224_block_11_expand_BN_FusedBatchNormV3_nchw)[name = tensor<string, []>("sequential_23_mobilenetv2_1_00_224_block_11_expand_relu_Relu6")];
            tensor<string, []> sequential_23_mobilenetv2_1_00_224_block_11_depthwise_depthwisex_pad_type_0 = const()[name = tensor<string, []>("sequential_23_mobilenetv2_1_00_224_block_11_depthwise_depthwisex_pad_type_0"), val = tensor<string, []>("same")];
            tensor<int32, [2]> sequential_23_mobilenetv2_1_00_224_block_11_depthwise_depthwisex_strides_0 = const()[name = tensor<string, []>("sequential_23_mobilenetv2_1_00_224_block_11_depthwise_depthwisex_strides_0"), val = tensor<int32, [2]>([1, 1])];
            tensor<int32, [2]> sequential_23_mobilenetv2_1_00_224_block_11_depthwise_depthwisex_dilations_0 = const()[name = tensor<string, []>("sequential_23_mobilenetv2_1_00_224_block_11_depthwise_depthwisex_dilations_0"), val = tensor<int32, [2]>([1, 1])];
            tensor<int32, []> sequential_23_mobilenetv2_1_00_224_block_11_depthwise_depthwisex_groups_0 = const()[name = tensor<string, []>("sequential_23_mobilenetv2_1_00_224_block_11_depthwise_depthwisex_groups_0"), val = tensor<int32, []>(576)];
            tensor<int32, [4]> sequential_23_mobilenetv2_1_00_224_block_11_depthwise_depthwisex_pad_0 = const()[name = tensor<string, []>("sequential_23_mobilenetv2_1_00_224_block_11_depthwise_depthwisex_pad_0"), val = tensor<int32, [4]>([0, 0, 0, 0])];
            tensor<fp32, [576, 1, 3, 3]> const_72 = const()[name = tensor<string, []>("const_72"), val = tensor<fp32, [576, 1, 3, 3]>(BLOBFILE(path = tensor<string, []>("@model_path/weights/weight.bin"), offset = tensor<uint64, []>(1429632)))];
            tensor<fp32, [576]> const_73 = const()[name = tensor<string, []>("const_73"), val = tensor<fp32, [576]>(BLOBFILE(path = tensor<string, []>("@model_path/weights/weight.bin"), offset = tensor<uint64, []>(1450432)))];
            tensor<fp32, [1, 576, 14, 14]> sequential_23_mobilenetv2_1_00_224_block_11_depthwise_BN_FusedBatchNormV3_nchw = conv(bias = const_73, dilations = sequential_23_mobilenetv2_1_00_224_block_11_depthwise_depthwisex_dilations_0, groups = sequential_23_mobilenetv2_1_00_224_block_11_depthwise_depthwisex_groups_0, pad = sequential_23_mobilenetv2_1_00_224_block_11_depthwise_depthwisex_pad_0, pad_type = sequential_23_mobilenetv2_1_00_224_block_11_depthwise_depthwisex_pad_type_0, strides = sequential_23_mobilenetv2_1_00_224_block_11_depthwise_depthwisex_strides_0, weight = const_72, x = sequential_23_mobilenetv2_1_00_224_block_11_expand_relu_Relu6)[name = tensor<string, []>("sequential_23_mobilenetv2_1_00_224_block_11_depthwise_BN_FusedBatchNormV3_nchw")];
            tensor<fp32, [1, 576, 14, 14]> sequential_23_mobilenetv2_1_00_224_block_11_depthwise_relu_Relu6 = relu6(x = sequential_23_mobilenetv2_1_00_224_block_11_depthwise_BN_FusedBatchNormV3_nchw)[name = tensor<string, []>("sequential_23_mobilenetv2_1_00_224_block_11_depthwise_relu_Relu6")];
            tensor<string, []> sequential_23_mobilenetv2_1_00_224_block_11_project_Conv2Dx_pad_type_0 = const()[name = tensor<string, []>("sequential_23_mobilenetv2_1_00_224_block_11_project_Conv2Dx_pad_type_0"), val = tensor<string, []>("same")];
            tensor<int32, [2]> sequential_23_mobilenetv2_1_00_224_block_11_project_Conv2Dx_strides_0 = const()[name = tensor<string, []>("sequential_23_mobilenetv2_1_00_224_block_11_project_Conv2Dx_strides_0"), val = tensor<int32, [2]>([1, 1])];
            tensor<int32, [2]> sequential_23_mobilenetv2_1_00_224_block_11_project_Conv2Dx_dilations_0 = const()[name = tensor<string, []>("sequential_23_mobilenetv2_1_00_224_block_11_project_Conv2Dx_dilations_0"), val = tensor<int32, [2]>([1, 1])];
            tensor<int32, []> sequential_23_mobilenetv2_1_00_224_block_11_project_Conv2Dx_groups_0 = const()[name = tensor<string, []>("sequential_23_mobilenetv2_1_00_224_block_11_project_Conv2Dx_groups_0"), val = tensor<int32, []>(1)];
            tensor<int32, [4]> sequential_23_mobilenetv2_1_00_224_block_11_project_Conv2Dx_pad_0 = const()[name = tensor<string, []>("sequential_23_mobilenetv2_1_00_224_block_11_project_Conv2Dx_pad_0"), val = tensor<int32, [4]>([0, 0, 0, 0])];
            tensor<fp32, [96, 576, 1, 1]> const_74 = const()[name = tensor<string, []>("const_74"), val = tensor<fp32, [96, 576, 1, 1]>(BLOBFILE(path = tensor<string, []>("@model_path/weights/weight.bin"), offset = tensor<uint64, []>(1452800)))];
            tensor<fp32, [96]> const_75 = const()[name = tensor<string, []>("const_75"), val = tensor<fp32, [96]>(BLOBFILE(path = tensor<string, []>("@model_path/weights/weight.bin"), offset = tensor<uint64, []>(1674048)))];
            tensor<fp32, [1, 96, 14, 14]> sequential_23_mobilenetv2_1_00_224_block_11_project_BN_FusedBatchNormV3_nchw = conv(bias = const_75, dilations = sequential_23_mobilenetv2_1_00_224_block_11_project_Conv2Dx_dilations_0, groups = sequential_23_mobilenetv2_1_00_224_block_11_project_Conv2Dx_groups_0, pad = sequential_23_mobilenetv2_1_00_224_block_11_project_Conv2Dx_pad_0, pad_type = sequential_23_mobilenetv2_1_00_224_block_11_project_Conv2Dx_pad_type_0, strides = sequential_23_mobilenetv2_1_00_224_block_11_project_Conv2Dx_strides_0, weight = const_74, x = sequential_23_mobilenetv2_1_00_224_block_11_depthwise_relu_Relu6)[name = tensor<string, []>("sequential_23_mobilenetv2_1_00_224_block_11_project_BN_FusedBatchNormV3_nchw")];
            tensor<fp32, [1, 96, 14, 14]> sequential_23_mobilenetv2_1_00_224_block_11_add_add = add(x = sequential_23_mobilenetv2_1_00_224_block_10_project_BN_FusedBatchNormV3_nchw, y = sequential_23_mobilenetv2_1_00_224_block_11_project_BN_FusedBatchNormV3_nchw)[name = tensor<string, []>("sequential_23_mobilenetv2_1_00_224_block_11_add_add")];
            tensor<string, []> sequential_23_mobilenetv2_1_00_224_block_12_expand_Conv2Dx_pad_type_0 = const()[name = tensor<string, []>("sequential_23_mobilenetv2_1_00_224_block_12_expand_Conv2Dx_pad_type_0"), val = tensor<string, []>("same")];
            tensor<int32, [2]> sequential_23_mobilenetv2_1_00_224_block_12_expand_Conv2Dx_strides_0 = const()[name = tensor<string, []>("sequential_23_mobilenetv2_1_00_224_block_12_expand_Conv2Dx_strides_0"), val = tensor<int32, [2]>([1, 1])];
            tensor<int32, [2]> sequential_23_mobilenetv2_1_00_224_block_12_expand_Conv2Dx_dilations_0 = const()[name = tensor<string, []>("sequential_23_mobilenetv2_1_00_224_block_12_expand_Conv2Dx_dilations_0"), val = tensor<int32, [2]>([1, 1])];
            tensor<int32, []> sequential_23_mobilenetv2_1_00_224_block_12_expand_Conv2Dx_groups_0 = const()[name = tensor<string, []>("sequential_23_mobilenetv2_1_00_224_block_12_expand_Conv2Dx_groups_0"), val = tensor<int32, []>(1)];
            tensor<int32, [4]> sequential_23_mobilenetv2_1_00_224_block_12_expand_Conv2Dx_pad_0 = const()[name = tensor<string, []>("sequential_23_mobilenetv2_1_00_224_block_12_expand_Conv2Dx_pad_0"), val = tensor<int32, [4]>([0, 0, 0, 0])];
            tensor<fp32, [576, 96, 1, 1]> const_76 = const()[name = tensor<string, []>("const_76"), val = tensor<fp32, [576, 96, 1, 1]>(BLOBFILE(path = tensor<string, []>("@model_path/weights/weight.bin"), offset = tensor<uint64, []>(1674496)))];
            tensor<fp32, [576]> const_77 = const()[name = tensor<string, []>("const_77"), val = tensor<fp32, [576]>(BLOBFILE(path = tensor<string, []>("@model_path/weights/weight.bin"), offset = tensor<uint64, []>(1895744)))];
            tensor<fp32, [1, 576, 14, 14]> sequential_23_mobilenetv2_1_00_224_block_12_expand_BN_FusedBatchNormV3_nchw = conv(bias = const_77, dilations = sequential_23_mobilenetv2_1_00_224_block_12_expand_Conv2Dx_dilations_0, groups = sequential_23_mobilenetv2_1_00_224_block_12_expand_Conv2Dx_groups_0, pad = sequential_23_mobilenetv2_1_00_224_block_12_expand_Conv2Dx_pad_0, pad_type = sequential_23_mobilenetv2_1_00_224_block_12_expand_Conv2Dx_pad_type_0, strides = sequential_23_mobilenetv2_1_00_224_block_12_expand_Conv2Dx_strides_0, weight = const_76, x = sequential_23_mobilenetv2_1_00_224_block_11_add_add)[name = tensor<string, []>("sequential_23_mobilenetv2_1_00_224_block_12_expand_BN_FusedBatchNormV3_nchw")];
            tensor<fp32, [1, 576, 14, 14]> sequential_23_mobilenetv2_1_00_224_block_12_expand_relu_Relu6 = relu6(x = sequential_23_mobilenetv2_1_00_224_block_12_expand_BN_FusedBatchNormV3_nchw)[name = tensor<string, []>("sequential_23_mobilenetv2_1_00_224_block_12_expand_relu_Relu6")];
            tensor<string, []> sequential_23_mobilenetv2_1_00_224_block_12_depthwise_depthwisex_pad_type_0 = const()[name = tensor<string, []>("sequential_23_mobilenetv2_1_00_224_block_12_depthwise_depthwisex_pad_type_0"), val = tensor<string, []>("same")];
            tensor<int32, [2]> sequential_23_mobilenetv2_1_00_224_block_12_depthwise_depthwisex_strides_0 = const()[name = tensor<string, []>("sequential_23_mobilenetv2_1_00_224_block_12_depthwise_depthwisex_strides_0"), val = tensor<int32, [2]>([1, 1])];
            tensor<int32, [2]> sequential_23_mobilenetv2_1_00_224_block_12_depthwise_depthwisex_dilations_0 = const()[name = tensor<string, []>("sequential_23_mobilenetv2_1_00_224_block_12_depthwise_depthwisex_dilations_0"), val = tensor<int32, [2]>([1, 1])];
            tensor<int32, []> sequential_23_mobilenetv2_1_00_224_block_12_depthwise_depthwisex_groups_0 = const()[name = tensor<string, []>("sequential_23_mobilenetv2_1_00_224_block_12_depthwise_depthwisex_groups_0"), val = tensor<int32, []>(576)];
            tensor<int32, [4]> sequential_23_mobilenetv2_1_00_224_block_12_depthwise_depthwisex_pad_0 = const()[name = tensor<string, []>("sequential_23_mobilenetv2_1_00_224_block_12_depthwise_depthwisex_pad_0"), val = tensor<int32, [4]>([0, 0, 0, 0])];
            tensor<fp32, [576, 1, 3, 3]> const_78 = const()[name = tensor<string, []>("const_78"), val = tensor<fp32, [576, 1, 3, 3]>(BLOBFILE(path = tensor<string, []>("@model_path/weights/weight.bin"), offset = tensor<uint64, []>(1898112)))];
            tensor<fp32, [576]> const_79 = const()[name = tensor<string, []>("const_79"), val = tensor<fp32, [576]>(BLOBFILE(path = tensor<string, []>("@model_path/weights/weight.bin"), offset = tensor<uint64, []>(1918912)))];
            tensor<fp32, [1, 576, 14, 14]> sequential_23_mobilenetv2_1_00_224_block_12_depthwise_BN_FusedBatchNormV3_nchw = conv(bias = const_79, dilations = sequential_23_mobilenetv2_1_00_224_block_12_depthwise_depthwisex_dilations_0, groups = sequential_23_mobilenetv2_1_00_224_block_12_depthwise_depthwisex_groups_0, pad = sequential_23_mobilenetv2_1_00_224_block_12_depthwise_depthwisex_pad_0, pad_type = sequential_23_mobilenetv2_1_00_224_block_12_depthwise_depthwisex_pad_type_0, strides = sequential_23_mobilenetv2_1_00_224_block_12_depthwise_depthwisex_strides_0, weight = const_78, x = sequential_23_mobilenetv2_1_00_224_block_12_expand_relu_Relu6)[name = tensor<string, []>("sequential_23_mobilenetv2_1_00_224_block_12_depthwise_BN_FusedBatchNormV3_nchw")];
            tensor<fp32, [1, 576, 14, 14]> sequential_23_mobilenetv2_1_00_224_block_12_depthwise_relu_Relu6 = relu6(x = sequential_23_mobilenetv2_1_00_224_block_12_depthwise_BN_FusedBatchNormV3_nchw)[name = tensor<string, []>("sequential_23_mobilenetv2_1_00_224_block_12_depthwise_relu_Relu6")];
            tensor<string, []> sequential_23_mobilenetv2_1_00_224_block_12_project_Conv2Dx_pad_type_0 = const()[name = tensor<string, []>("sequential_23_mobilenetv2_1_00_224_block_12_project_Conv2Dx_pad_type_0"), val = tensor<string, []>("same")];
            tensor<int32, [2]> sequential_23_mobilenetv2_1_00_224_block_12_project_Conv2Dx_strides_0 = const()[name = tensor<string, []>("sequential_23_mobilenetv2_1_00_224_block_12_project_Conv2Dx_strides_0"), val = tensor<int32, [2]>([1, 1])];
            tensor<int32, [2]> sequential_23_mobilenetv2_1_00_224_block_12_project_Conv2Dx_dilations_0 = const()[name = tensor<string, []>("sequential_23_mobilenetv2_1_00_224_block_12_project_Conv2Dx_dilations_0"), val = tensor<int32, [2]>([1, 1])];
            tensor<int32, []> sequential_23_mobilenetv2_1_00_224_block_12_project_Conv2Dx_groups_0 = const()[name = tensor<string, []>("sequential_23_mobilenetv2_1_00_224_block_12_project_Conv2Dx_groups_0"), val = tensor<int32, []>(1)];
            tensor<int32, [4]> sequential_23_mobilenetv2_1_00_224_block_12_project_Conv2Dx_pad_0 = const()[name = tensor<string, []>("sequential_23_mobilenetv2_1_00_224_block_12_project_Conv2Dx_pad_0"), val = tensor<int32, [4]>([0, 0, 0, 0])];
            tensor<fp32, [96, 576, 1, 1]> const_80 = const()[name = tensor<string, []>("const_80"), val = tensor<fp32, [96, 576, 1, 1]>(BLOBFILE(path = tensor<string, []>("@model_path/weights/weight.bin"), offset = tensor<uint64, []>(1921280)))];
            tensor<fp32, [96]> const_81 = const()[name = tensor<string, []>("const_81"), val = tensor<fp32, [96]>(BLOBFILE(path = tensor<string, []>("@model_path/weights/weight.bin"), offset = tensor<uint64, []>(2142528)))];
            tensor<fp32, [1, 96, 14, 14]> sequential_23_mobilenetv2_1_00_224_block_12_project_BN_FusedBatchNormV3_nchw = conv(bias = const_81, dilations = sequential_23_mobilenetv2_1_00_224_block_12_project_Conv2Dx_dilations_0, groups = sequential_23_mobilenetv2_1_00_224_block_12_project_Conv2Dx_groups_0, pad = sequential_23_mobilenetv2_1_00_224_block_12_project_Conv2Dx_pad_0, pad_type = sequential_23_mobilenetv2_1_00_224_block_12_project_Conv2Dx_pad_type_0, strides = sequential_23_mobilenetv2_1_00_224_block_12_project_Conv2Dx_strides_0, weight = const_80, x = sequential_23_mobilenetv2_1_00_224_block_12_depthwise_relu_Relu6)[name = tensor<string, []>("sequential_23_mobilenetv2_1_00_224_block_12_project_BN_FusedBatchNormV3_nchw")];
            tensor<fp32, [1, 96, 14, 14]> sequential_23_mobilenetv2_1_00_224_block_12_add_add = add(x = sequential_23_mobilenetv2_1_00_224_block_11_add_add, y = sequential_23_mobilenetv2_1_00_224_block_12_project_BN_FusedBatchNormV3_nchw)[name = tensor<string, []>("sequential_23_mobilenetv2_1_00_224_block_12_add_add")];
            tensor<string, []> sequential_23_mobilenetv2_1_00_224_block_13_expand_Conv2Dx_pad_type_0 = const()[name = tensor<string, []>("sequential_23_mobilenetv2_1_00_224_block_13_expand_Conv2Dx_pad_type_0"), val = tensor<string, []>("same")];
            tensor<int32, [2]> sequential_23_mobilenetv2_1_00_224_block_13_expand_Conv2Dx_strides_0 = const()[name = tensor<string, []>("sequential_23_mobilenetv2_1_00_224_block_13_expand_Conv2Dx_strides_0"), val = tensor<int32, [2]>([1, 1])];
            tensor<int32, [2]> sequential_23_mobilenetv2_1_00_224_block_13_expand_Conv2Dx_dilations_0 = const()[name = tensor<string, []>("sequential_23_mobilenetv2_1_00_224_block_13_expand_Conv2Dx_dilations_0"), val = tensor<int32, [2]>([1, 1])];
            tensor<int32, []> sequential_23_mobilenetv2_1_00_224_block_13_expand_Conv2Dx_groups_0 = const()[name = tensor<string, []>("sequential_23_mobilenetv2_1_00_224_block_13_expand_Conv2Dx_groups_0"), val = tensor<int32, []>(1)];
            tensor<int32, [4]> sequential_23_mobilenetv2_1_00_224_block_13_expand_Conv2Dx_pad_0 = const()[name = tensor<string, []>("sequential_23_mobilenetv2_1_00_224_block_13_expand_Conv2Dx_pad_0"), val = tensor<int32, [4]>([0, 0, 0, 0])];
            tensor<fp32, [576, 96, 1, 1]> const_82 = const()[name = tensor<string, []>("const_82"), val = tensor<fp32, [576, 96, 1, 1]>(BLOBFILE(path = tensor<string, []>("@model_path/weights/weight.bin"), offset = tensor<uint64, []>(2142976)))];
            tensor<fp32, [576]> const_83 = const()[name = tensor<string, []>("const_83"), val = tensor<fp32, [576]>(BLOBFILE(path = tensor<string, []>("@model_path/weights/weight.bin"), offset = tensor<uint64, []>(2364224)))];
            tensor<fp32, [1, 576, 14, 14]> sequential_23_mobilenetv2_1_00_224_block_13_expand_BN_FusedBatchNormV3_nchw = conv(bias = const_83, dilations = sequential_23_mobilenetv2_1_00_224_block_13_expand_Conv2Dx_dilations_0, groups = sequential_23_mobilenetv2_1_00_224_block_13_expand_Conv2Dx_groups_0, pad = sequential_23_mobilenetv2_1_00_224_block_13_expand_Conv2Dx_pad_0, pad_type = sequential_23_mobilenetv2_1_00_224_block_13_expand_Conv2Dx_pad_type_0, strides = sequential_23_mobilenetv2_1_00_224_block_13_expand_Conv2Dx_strides_0, weight = const_82, x = sequential_23_mobilenetv2_1_00_224_block_12_add_add)[name = tensor<string, []>("sequential_23_mobilenetv2_1_00_224_block_13_expand_BN_FusedBatchNormV3_nchw")];
            tensor<fp32, [1, 576, 14, 14]> sequential_23_mobilenetv2_1_00_224_block_13_expand_relu_Relu6 = relu6(x = sequential_23_mobilenetv2_1_00_224_block_13_expand_BN_FusedBatchNormV3_nchw)[name = tensor<string, []>("sequential_23_mobilenetv2_1_00_224_block_13_expand_relu_Relu6")];
            tensor<fp32, []> const_3 = const()[name = tensor<string, []>("const_3"), val = tensor<fp32, []>(0x0p+0)];
            tensor<string, []> pad_3_mode_0 = const()[name = tensor<string, []>("pad_3_mode_0"), val = tensor<string, []>("constant")];
            tensor<int32, [8]> pad_7_pad_0 = const()[name = tensor<string, []>("pad_7_pad_0"), val = tensor<int32, [8]>([0, 0, 0, 0, 0, 1, 0, 1])];
            tensor<fp32, [1, 576, 15, 15]> pad_7 = pad(constant_val = const_3, mode = pad_3_mode_0, pad = pad_7_pad_0, x = sequential_23_mobilenetv2_1_00_224_block_13_expand_relu_Relu6)[name = tensor<string, []>("pad_7")];
            tensor<string, []> sequential_23_mobilenetv2_1_00_224_block_13_depthwise_depthwisex_pad_type_0 = const()[name = tensor<string, []>("sequential_23_mobilenetv2_1_00_224_block_13_depthwise_depthwisex_pad_type_0"), val = tensor<string, []>("valid")];
            tensor<int32, [2]> sequential_23_mobilenetv2_1_00_224_block_13_depthwise_depthwisex_strides_0 = const()[name = tensor<string, []>("sequential_23_mobilenetv2_1_00_224_block_13_depthwise_depthwisex_strides_0"), val = tensor<int32, [2]>([2, 2])];
            tensor<int32, [2]> sequential_23_mobilenetv2_1_00_224_block_13_depthwise_depthwisex_dilations_0 = const()[name = tensor<string, []>("sequential_23_mobilenetv2_1_00_224_block_13_depthwise_depthwisex_dilations_0"), val = tensor<int32, [2]>([1, 1])];
            tensor<int32, []> sequential_23_mobilenetv2_1_00_224_block_13_depthwise_depthwisex_groups_0 = const()[name = tensor<string, []>("sequential_23_mobilenetv2_1_00_224_block_13_depthwise_depthwisex_groups_0"), val = tensor<int32, []>(576)];
            tensor<int32, [4]> sequential_23_mobilenetv2_1_00_224_block_13_depthwise_depthwisex_pad_0 = const()[name = tensor<string, []>("sequential_23_mobilenetv2_1_00_224_block_13_depthwise_depthwisex_pad_0"), val = tensor<int32, [4]>([0, 0, 0, 0])];
            tensor<fp32, [576, 1, 3, 3]> const_84 = const()[name = tensor<string, []>("const_84"), val = tensor<fp32, [576, 1, 3, 3]>(BLOBFILE(path = tensor<string, []>("@model_path/weights/weight.bin"), offset = tensor<uint64, []>(2366592)))];
            tensor<fp32, [576]> const_85 = const()[name = tensor<string, []>("const_85"), val = tensor<fp32, [576]>(BLOBFILE(path = tensor<string, []>("@model_path/weights/weight.bin"), offset = tensor<uint64, []>(2387392)))];
            tensor<fp32, [1, 576, 7, 7]> sequential_23_mobilenetv2_1_00_224_block_13_depthwise_BN_FusedBatchNormV3_nchw = conv(bias = const_85, dilations = sequential_23_mobilenetv2_1_00_224_block_13_depthwise_depthwisex_dilations_0, groups = sequential_23_mobilenetv2_1_00_224_block_13_depthwise_depthwisex_groups_0, pad = sequential_23_mobilenetv2_1_00_224_block_13_depthwise_depthwisex_pad_0, pad_type = sequential_23_mobilenetv2_1_00_224_block_13_depthwise_depthwisex_pad_type_0, strides = sequential_23_mobilenetv2_1_00_224_block_13_depthwise_depthwisex_strides_0, weight = const_84, x = pad_7)[name = tensor<string, []>("sequential_23_mobilenetv2_1_00_224_block_13_depthwise_BN_FusedBatchNormV3_nchw")];
            tensor<fp32, [1, 576, 7, 7]> sequential_23_mobilenetv2_1_00_224_block_13_depthwise_relu_Relu6 = relu6(x = sequential_23_mobilenetv2_1_00_224_block_13_depthwise_BN_FusedBatchNormV3_nchw)[name = tensor<string, []>("sequential_23_mobilenetv2_1_00_224_block_13_depthwise_relu_Relu6")];
            tensor<string, []> sequential_23_mobilenetv2_1_00_224_block_13_project_Conv2Dx_pad_type_0 = const()[name = tensor<string, []>("sequential_23_mobilenetv2_1_00_224_block_13_project_Conv2Dx_pad_type_0"), val = tensor<string, []>("same")];
            tensor<int32, [2]> sequential_23_mobilenetv2_1_00_224_block_13_project_Conv2Dx_strides_0 = const()[name = tensor<string, []>("sequential_23_mobilenetv2_1_00_224_block_13_project_Conv2Dx_strides_0"), val = tensor<int32, [2]>([1, 1])];
            tensor<int32, [2]> sequential_23_mobilenetv2_1_00_224_block_13_project_Conv2Dx_dilations_0 = const()[name = tensor<string, []>("sequential_23_mobilenetv2_1_00_224_block_13_project_Conv2Dx_dilations_0"), val = tensor<int32, [2]>([1, 1])];
            tensor<int32, []> sequential_23_mobilenetv2_1_00_224_block_13_project_Conv2Dx_groups_0 = const()[name = tensor<string, []>("sequential_23_mobilenetv2_1_00_224_block_13_project_Conv2Dx_groups_0"), val = tensor<int32, []>(1)];
            tensor<int32, [4]> sequential_23_mobilenetv2_1_00_224_block_13_project_Conv2Dx_pad_0 = const()[name = tensor<string, []>("sequential_23_mobilenetv2_1_00_224_block_13_project_Conv2Dx_pad_0"), val = tensor<int32, [4]>([0, 0, 0, 0])];
            tensor<fp32, [160, 576, 1, 1]> const_86 = const()[name = tensor<string, []>("const_86"), val = tensor<fp32, [160, 576, 1, 1]>(BLOBFILE(path = tensor<string, []>("@model_path/weights/weight.bin"), offset = tensor<uint64, []>(2389760)))];
            tensor<fp32, [160]> const_87 = const()[name = tensor<string, []>("const_87"), val = tensor<fp32, [160]>(BLOBFILE(path = tensor<string, []>("@model_path/weights/weight.bin"), offset = tensor<uint64, []>(2758464)))];
            tensor<fp32, [1, 160, 7, 7]> sequential_23_mobilenetv2_1_00_224_block_13_project_BN_FusedBatchNormV3_nchw = conv(bias = const_87, dilations = sequential_23_mobilenetv2_1_00_224_block_13_project_Conv2Dx_dilations_0, groups = sequential_23_mobilenetv2_1_00_224_block_13_project_Conv2Dx_groups_0, pad = sequential_23_mobilenetv2_1_00_224_block_13_project_Conv2Dx_pad_0, pad_type = sequential_23_mobilenetv2_1_00_224_block_13_project_Conv2Dx_pad_type_0, strides = sequential_23_mobilenetv2_1_00_224_block_13_project_Conv2Dx_strides_0, weight = const_86, x = sequential_23_mobilenetv2_1_00_224_block_13_depthwise_relu_Relu6)[name = tensor<string, []>("sequential_23_mobilenetv2_1_00_224_block_13_project_BN_FusedBatchNormV3_nchw")];
            tensor<string, []> sequential_23_mobilenetv2_1_00_224_block_14_expand_Conv2Dx_pad_type_0 = const()[name = tensor<string, []>("sequential_23_mobilenetv2_1_00_224_block_14_expand_Conv2Dx_pad_type_0"), val = tensor<string, []>("same")];
            tensor<int32, [2]> sequential_23_mobilenetv2_1_00_224_block_14_expand_Conv2Dx_strides_0 = const()[name = tensor<string, []>("sequential_23_mobilenetv2_1_00_224_block_14_expand_Conv2Dx_strides_0"), val = tensor<int32, [2]>([1, 1])];
            tensor<int32, [2]> sequential_23_mobilenetv2_1_00_224_block_14_expand_Conv2Dx_dilations_0 = const()[name = tensor<string, []>("sequential_23_mobilenetv2_1_00_224_block_14_expand_Conv2Dx_dilations_0"), val = tensor<int32, [2]>([1, 1])];
            tensor<int32, []> sequential_23_mobilenetv2_1_00_224_block_14_expand_Conv2Dx_groups_0 = const()[name = tensor<string, []>("sequential_23_mobilenetv2_1_00_224_block_14_expand_Conv2Dx_groups_0"), val = tensor<int32, []>(1)];
            tensor<int32, [4]> sequential_23_mobilenetv2_1_00_224_block_14_expand_Conv2Dx_pad_0 = const()[name = tensor<string, []>("sequential_23_mobilenetv2_1_00_224_block_14_expand_Conv2Dx_pad_0"), val = tensor<int32, [4]>([0, 0, 0, 0])];
            tensor<fp32, [960, 160, 1, 1]> const_88 = const()[name = tensor<string, []>("const_88"), val = tensor<fp32, [960, 160, 1, 1]>(BLOBFILE(path = tensor<string, []>("@model_path/weights/weight.bin"), offset = tensor<uint64, []>(2759168)))];
            tensor<fp32, [960]> const_89 = const()[name = tensor<string, []>("const_89"), val = tensor<fp32, [960]>(BLOBFILE(path = tensor<string, []>("@model_path/weights/weight.bin"), offset = tensor<uint64, []>(3373632)))];
            tensor<fp32, [1, 960, 7, 7]> sequential_23_mobilenetv2_1_00_224_block_14_expand_BN_FusedBatchNormV3_nchw = conv(bias = const_89, dilations = sequential_23_mobilenetv2_1_00_224_block_14_expand_Conv2Dx_dilations_0, groups = sequential_23_mobilenetv2_1_00_224_block_14_expand_Conv2Dx_groups_0, pad = sequential_23_mobilenetv2_1_00_224_block_14_expand_Conv2Dx_pad_0, pad_type = sequential_23_mobilenetv2_1_00_224_block_14_expand_Conv2Dx_pad_type_0, strides = sequential_23_mobilenetv2_1_00_224_block_14_expand_Conv2Dx_strides_0, weight = const_88, x = sequential_23_mobilenetv2_1_00_224_block_13_project_BN_FusedBatchNormV3_nchw)[name = tensor<string, []>("sequential_23_mobilenetv2_1_00_224_block_14_expand_BN_FusedBatchNormV3_nchw")];
            tensor<fp32, [1, 960, 7, 7]> sequential_23_mobilenetv2_1_00_224_block_14_expand_relu_Relu6 = relu6(x = sequential_23_mobilenetv2_1_00_224_block_14_expand_BN_FusedBatchNormV3_nchw)[name = tensor<string, []>("sequential_23_mobilenetv2_1_00_224_block_14_expand_relu_Relu6")];
            tensor<string, []> sequential_23_mobilenetv2_1_00_224_block_14_depthwise_depthwisex_pad_type_0 = const()[name = tensor<string, []>("sequential_23_mobilenetv2_1_00_224_block_14_depthwise_depthwisex_pad_type_0"), val = tensor<string, []>("same")];
            tensor<int32, [2]> sequential_23_mobilenetv2_1_00_224_block_14_depthwise_depthwisex_strides_0 = const()[name = tensor<string, []>("sequential_23_mobilenetv2_1_00_224_block_14_depthwise_depthwisex_strides_0"), val = tensor<int32, [2]>([1, 1])];
            tensor<int32, [2]> sequential_23_mobilenetv2_1_00_224_block_14_depthwise_depthwisex_dilations_0 = const()[name = tensor<string, []>("sequential_23_mobilenetv2_1_00_224_block_14_depthwise_depthwisex_dilations_0"), val = tensor<int32, [2]>([1, 1])];
            tensor<int32, []> sequential_23_mobilenetv2_1_00_224_block_14_depthwise_depthwisex_groups_0 = const()[name = tensor<string, []>("sequential_23_mobilenetv2_1_00_224_block_14_depthwise_depthwisex_groups_0"), val = tensor<int32, []>(960)];
            tensor<int32, [4]> sequential_23_mobilenetv2_1_00_224_block_14_depthwise_depthwisex_pad_0 = const()[name = tensor<string, []>("sequential_23_mobilenetv2_1_00_224_block_14_depthwise_depthwisex_pad_0"), val = tensor<int32, [4]>([0, 0, 0, 0])];
            tensor<fp32, [960, 1, 3, 3]> const_90 = const()[name = tensor<string, []>("const_90"), val = tensor<fp32, [960, 1, 3, 3]>(BLOBFILE(path = tensor<string, []>("@model_path/weights/weight.bin"), offset = tensor<uint64, []>(3377536)))];
            tensor<fp32, [960]> const_91 = const()[name = tensor<string, []>("const_91"), val = tensor<fp32, [960]>(BLOBFILE(path = tensor<string, []>("@model_path/weights/weight.bin"), offset = tensor<uint64, []>(3412160)))];
            tensor<fp32, [1, 960, 7, 7]> sequential_23_mobilenetv2_1_00_224_block_14_depthwise_BN_FusedBatchNormV3_nchw = conv(bias = const_91, dilations = sequential_23_mobilenetv2_1_00_224_block_14_depthwise_depthwisex_dilations_0, groups = sequential_23_mobilenetv2_1_00_224_block_14_depthwise_depthwisex_groups_0, pad = sequential_23_mobilenetv2_1_00_224_block_14_depthwise_depthwisex_pad_0, pad_type = sequential_23_mobilenetv2_1_00_224_block_14_depthwise_depthwisex_pad_type_0, strides = sequential_23_mobilenetv2_1_00_224_block_14_depthwise_depthwisex_strides_0, weight = const_90, x = sequential_23_mobilenetv2_1_00_224_block_14_expand_relu_Relu6)[name = tensor<string, []>("sequential_23_mobilenetv2_1_00_224_block_14_depthwise_BN_FusedBatchNormV3_nchw")];
            tensor<fp32, [1, 960, 7, 7]> sequential_23_mobilenetv2_1_00_224_block_14_depthwise_relu_Relu6 = relu6(x = sequential_23_mobilenetv2_1_00_224_block_14_depthwise_BN_FusedBatchNormV3_nchw)[name = tensor<string, []>("sequential_23_mobilenetv2_1_00_224_block_14_depthwise_relu_Relu6")];
            tensor<string, []> sequential_23_mobilenetv2_1_00_224_block_14_project_Conv2Dx_pad_type_0 = const()[name = tensor<string, []>("sequential_23_mobilenetv2_1_00_224_block_14_project_Conv2Dx_pad_type_0"), val = tensor<string, []>("same")];
            tensor<int32, [2]> sequential_23_mobilenetv2_1_00_224_block_14_project_Conv2Dx_strides_0 = const()[name = tensor<string, []>("sequential_23_mobilenetv2_1_00_224_block_14_project_Conv2Dx_strides_0"), val = tensor<int32, [2]>([1, 1])];
            tensor<int32, [2]> sequential_23_mobilenetv2_1_00_224_block_14_project_Conv2Dx_dilations_0 = const()[name = tensor<string, []>("sequential_23_mobilenetv2_1_00_224_block_14_project_Conv2Dx_dilations_0"), val = tensor<int32, [2]>([1, 1])];
            tensor<int32, []> sequential_23_mobilenetv2_1_00_224_block_14_project_Conv2Dx_groups_0 = const()[name = tensor<string, []>("sequential_23_mobilenetv2_1_00_224_block_14_project_Conv2Dx_groups_0"), val = tensor<int32, []>(1)];
            tensor<int32, [4]> sequential_23_mobilenetv2_1_00_224_block_14_project_Conv2Dx_pad_0 = const()[name = tensor<string, []>("sequential_23_mobilenetv2_1_00_224_block_14_project_Conv2Dx_pad_0"), val = tensor<int32, [4]>([0, 0, 0, 0])];
            tensor<fp32, [160, 960, 1, 1]> const_92 = const()[name = tensor<string, []>("const_92"), val = tensor<fp32, [160, 960, 1, 1]>(BLOBFILE(path = tensor<string, []>("@model_path/weights/weight.bin"), offset = tensor<uint64, []>(3416064)))];
            tensor<fp32, [160]> const_93 = const()[name = tensor<string, []>("const_93"), val = tensor<fp32, [160]>(BLOBFILE(path = tensor<string, []>("@model_path/weights/weight.bin"), offset = tensor<uint64, []>(4030528)))];
            tensor<fp32, [1, 160, 7, 7]> sequential_23_mobilenetv2_1_00_224_block_14_project_BN_FusedBatchNormV3_nchw = conv(bias = const_93, dilations = sequential_23_mobilenetv2_1_00_224_block_14_project_Conv2Dx_dilations_0, groups = sequential_23_mobilenetv2_1_00_224_block_14_project_Conv2Dx_groups_0, pad = sequential_23_mobilenetv2_1_00_224_block_14_project_Conv2Dx_pad_0, pad_type = sequential_23_mobilenetv2_1_00_224_block_14_project_Conv2Dx_pad_type_0, strides = sequential_23_mobilenetv2_1_00_224_block_14_project_Conv2Dx_strides_0, weight = const_92, x = sequential_23_mobilenetv2_1_00_224_block_14_depthwise_relu_Relu6)[name = tensor<string, []>("sequential_23_mobilenetv2_1_00_224_block_14_project_BN_FusedBatchNormV3_nchw")];
            tensor<fp32, [1, 160, 7, 7]> sequential_23_mobilenetv2_1_00_224_block_14_add_add = add(x = sequential_23_mobilenetv2_1_00_224_block_13_project_BN_FusedBatchNormV3_nchw, y = sequential_23_mobilenetv2_1_00_224_block_14_project_BN_FusedBatchNormV3_nchw)[name = tensor<string, []>("sequential_23_mobilenetv2_1_00_224_block_14_add_add")];
            tensor<string, []> sequential_23_mobilenetv2_1_00_224_block_15_expand_Conv2Dx_pad_type_0 = const()[name = tensor<string, []>("sequential_23_mobilenetv2_1_00_224_block_15_expand_Conv2Dx_pad_type_0"), val = tensor<string, []>("same")];
            tensor<int32, [2]> sequential_23_mobilenetv2_1_00_224_block_15_expand_Conv2Dx_strides_0 = const()[name = tensor<string, []>("sequential_23_mobilenetv2_1_00_224_block_15_expand_Conv2Dx_strides_0"), val = tensor<int32, [2]>([1, 1])];
            tensor<int32, [2]> sequential_23_mobilenetv2_1_00_224_block_15_expand_Conv2Dx_dilations_0 = const()[name = tensor<string, []>("sequential_23_mobilenetv2_1_00_224_block_15_expand_Conv2Dx_dilations_0"), val = tensor<int32, [2]>([1, 1])];
            tensor<int32, []> sequential_23_mobilenetv2_1_00_224_block_15_expand_Conv2Dx_groups_0 = const()[name = tensor<string, []>("sequential_23_mobilenetv2_1_00_224_block_15_expand_Conv2Dx_groups_0"), val = tensor<int32, []>(1)];
            tensor<int32, [4]> sequential_23_mobilenetv2_1_00_224_block_15_expand_Conv2Dx_pad_0 = const()[name = tensor<string, []>("sequential_23_mobilenetv2_1_00_224_block_15_expand_Conv2Dx_pad_0"), val = tensor<int32, [4]>([0, 0, 0, 0])];
            tensor<fp32, [960, 160, 1, 1]> const_94 = const()[name = tensor<string, []>("const_94"), val = tensor<fp32, [960, 160, 1, 1]>(BLOBFILE(path = tensor<string, []>("@model_path/weights/weight.bin"), offset = tensor<uint64, []>(4031232)))];
            tensor<fp32, [960]> const_95 = const()[name = tensor<string, []>("const_95"), val = tensor<fp32, [960]>(BLOBFILE(path = tensor<string, []>("@model_path/weights/weight.bin"), offset = tensor<uint64, []>(4645696)))];
            tensor<fp32, [1, 960, 7, 7]> sequential_23_mobilenetv2_1_00_224_block_15_expand_BN_FusedBatchNormV3_nchw = conv(bias = const_95, dilations = sequential_23_mobilenetv2_1_00_224_block_15_expand_Conv2Dx_dilations_0, groups = sequential_23_mobilenetv2_1_00_224_block_15_expand_Conv2Dx_groups_0, pad = sequential_23_mobilenetv2_1_00_224_block_15_expand_Conv2Dx_pad_0, pad_type = sequential_23_mobilenetv2_1_00_224_block_15_expand_Conv2Dx_pad_type_0, strides = sequential_23_mobilenetv2_1_00_224_block_15_expand_Conv2Dx_strides_0, weight = const_94, x = sequential_23_mobilenetv2_1_00_224_block_14_add_add)[name = tensor<string, []>("sequential_23_mobilenetv2_1_00_224_block_15_expand_BN_FusedBatchNormV3_nchw")];
            tensor<fp32, [1, 960, 7, 7]> sequential_23_mobilenetv2_1_00_224_block_15_expand_relu_Relu6 = relu6(x = sequential_23_mobilenetv2_1_00_224_block_15_expand_BN_FusedBatchNormV3_nchw)[name = tensor<string, []>("sequential_23_mobilenetv2_1_00_224_block_15_expand_relu_Relu6")];
            tensor<string, []> sequential_23_mobilenetv2_1_00_224_block_15_depthwise_depthwisex_pad_type_0 = const()[name = tensor<string, []>("sequential_23_mobilenetv2_1_00_224_block_15_depthwise_depthwisex_pad_type_0"), val = tensor<string, []>("same")];
            tensor<int32, [2]> sequential_23_mobilenetv2_1_00_224_block_15_depthwise_depthwisex_strides_0 = const()[name = tensor<string, []>("sequential_23_mobilenetv2_1_00_224_block_15_depthwise_depthwisex_strides_0"), val = tensor<int32, [2]>([1, 1])];
            tensor<int32, [2]> sequential_23_mobilenetv2_1_00_224_block_15_depthwise_depthwisex_dilations_0 = const()[name = tensor<string, []>("sequential_23_mobilenetv2_1_00_224_block_15_depthwise_depthwisex_dilations_0"), val = tensor<int32, [2]>([1, 1])];
            tensor<int32, []> sequential_23_mobilenetv2_1_00_224_block_15_depthwise_depthwisex_groups_0 = const()[name = tensor<string, []>("sequential_23_mobilenetv2_1_00_224_block_15_depthwise_depthwisex_groups_0"), val = tensor<int32, []>(960)];
            tensor<int32, [4]> sequential_23_mobilenetv2_1_00_224_block_15_depthwise_depthwisex_pad_0 = const()[name = tensor<string, []>("sequential_23_mobilenetv2_1_00_224_block_15_depthwise_depthwisex_pad_0"), val = tensor<int32, [4]>([0, 0, 0, 0])];
            tensor<fp32, [960, 1, 3, 3]> const_96 = const()[name = tensor<string, []>("const_96"), val = tensor<fp32, [960, 1, 3, 3]>(BLOBFILE(path = tensor<string, []>("@model_path/weights/weight.bin"), offset = tensor<uint64, []>(4649600)))];
            tensor<fp32, [960]> const_97 = const()[name = tensor<string, []>("const_97"), val = tensor<fp32, [960]>(BLOBFILE(path = tensor<string, []>("@model_path/weights/weight.bin"), offset = tensor<uint64, []>(4684224)))];
            tensor<fp32, [1, 960, 7, 7]> sequential_23_mobilenetv2_1_00_224_block_15_depthwise_BN_FusedBatchNormV3_nchw = conv(bias = const_97, dilations = sequential_23_mobilenetv2_1_00_224_block_15_depthwise_depthwisex_dilations_0, groups = sequential_23_mobilenetv2_1_00_224_block_15_depthwise_depthwisex_groups_0, pad = sequential_23_mobilenetv2_1_00_224_block_15_depthwise_depthwisex_pad_0, pad_type = sequential_23_mobilenetv2_1_00_224_block_15_depthwise_depthwisex_pad_type_0, strides = sequential_23_mobilenetv2_1_00_224_block_15_depthwise_depthwisex_strides_0, weight = const_96, x = sequential_23_mobilenetv2_1_00_224_block_15_expand_relu_Relu6)[name = tensor<string, []>("sequential_23_mobilenetv2_1_00_224_block_15_depthwise_BN_FusedBatchNormV3_nchw")];
            tensor<fp32, [1, 960, 7, 7]> sequential_23_mobilenetv2_1_00_224_block_15_depthwise_relu_Relu6 = relu6(x = sequential_23_mobilenetv2_1_00_224_block_15_depthwise_BN_FusedBatchNormV3_nchw)[name = tensor<string, []>("sequential_23_mobilenetv2_1_00_224_block_15_depthwise_relu_Relu6")];
            tensor<string, []> sequential_23_mobilenetv2_1_00_224_block_15_project_Conv2Dx_pad_type_0 = const()[name = tensor<string, []>("sequential_23_mobilenetv2_1_00_224_block_15_project_Conv2Dx_pad_type_0"), val = tensor<string, []>("same")];
            tensor<int32, [2]> sequential_23_mobilenetv2_1_00_224_block_15_project_Conv2Dx_strides_0 = const()[name = tensor<string, []>("sequential_23_mobilenetv2_1_00_224_block_15_project_Conv2Dx_strides_0"), val = tensor<int32, [2]>([1, 1])];
            tensor<int32, [2]> sequential_23_mobilenetv2_1_00_224_block_15_project_Conv2Dx_dilations_0 = const()[name = tensor<string, []>("sequential_23_mobilenetv2_1_00_224_block_15_project_Conv2Dx_dilations_0"), val = tensor<int32, [2]>([1, 1])];
            tensor<int32, []> sequential_23_mobilenetv2_1_00_224_block_15_project_Conv2Dx_groups_0 = const()[name = tensor<string, []>("sequential_23_mobilenetv2_1_00_224_block_15_project_Conv2Dx_groups_0"), val = tensor<int32, []>(1)];
            tensor<int32, [4]> sequential_23_mobilenetv2_1_00_224_block_15_project_Conv2Dx_pad_0 = const()[name = tensor<string, []>("sequential_23_mobilenetv2_1_00_224_block_15_project_Conv2Dx_pad_0"), val = tensor<int32, [4]>([0, 0, 0, 0])];
            tensor<fp32, [160, 960, 1, 1]> const_98 = const()[name = tensor<string, []>("const_98"), val = tensor<fp32, [160, 960, 1, 1]>(BLOBFILE(path = tensor<string, []>("@model_path/weights/weight.bin"), offset = tensor<uint64, []>(4688128)))];
            tensor<fp32, [160]> const_99 = const()[name = tensor<string, []>("const_99"), val = tensor<fp32, [160]>(BLOBFILE(path = tensor<string, []>("@model_path/weights/weight.bin"), offset = tensor<uint64, []>(5302592)))];
            tensor<fp32, [1, 160, 7, 7]> sequential_23_mobilenetv2_1_00_224_block_15_project_BN_FusedBatchNormV3_nchw = conv(bias = const_99, dilations = sequential_23_mobilenetv2_1_00_224_block_15_project_Conv2Dx_dilations_0, groups = sequential_23_mobilenetv2_1_00_224_block_15_project_Conv2Dx_groups_0, pad = sequential_23_mobilenetv2_1_00_224_block_15_project_Conv2Dx_pad_0, pad_type = sequential_23_mobilenetv2_1_00_224_block_15_project_Conv2Dx_pad_type_0, strides = sequential_23_mobilenetv2_1_00_224_block_15_project_Conv2Dx_strides_0, weight = const_98, x = sequential_23_mobilenetv2_1_00_224_block_15_depthwise_relu_Relu6)[name = tensor<string, []>("sequential_23_mobilenetv2_1_00_224_block_15_project_BN_FusedBatchNormV3_nchw")];
            tensor<fp32, [1, 160, 7, 7]> sequential_23_mobilenetv2_1_00_224_block_15_add_add = add(x = sequential_23_mobilenetv2_1_00_224_block_14_add_add, y = sequential_23_mobilenetv2_1_00_224_block_15_project_BN_FusedBatchNormV3_nchw)[name = tensor<string, []>("sequential_23_mobilenetv2_1_00_224_block_15_add_add")];
            tensor<string, []> sequential_23_mobilenetv2_1_00_224_block_16_expand_Conv2Dx_pad_type_0 = const()[name = tensor<string, []>("sequential_23_mobilenetv2_1_00_224_block_16_expand_Conv2Dx_pad_type_0"), val = tensor<string, []>("same")];
            tensor<int32, [2]> sequential_23_mobilenetv2_1_00_224_block_16_expand_Conv2Dx_strides_0 = const()[name = tensor<string, []>("sequential_23_mobilenetv2_1_00_224_block_16_expand_Conv2Dx_strides_0"), val = tensor<int32, [2]>([1, 1])];
            tensor<int32, [2]> sequential_23_mobilenetv2_1_00_224_block_16_expand_Conv2Dx_dilations_0 = const()[name = tensor<string, []>("sequential_23_mobilenetv2_1_00_224_block_16_expand_Conv2Dx_dilations_0"), val = tensor<int32, [2]>([1, 1])];
            tensor<int32, []> sequential_23_mobilenetv2_1_00_224_block_16_expand_Conv2Dx_groups_0 = const()[name = tensor<string, []>("sequential_23_mobilenetv2_1_00_224_block_16_expand_Conv2Dx_groups_0"), val = tensor<int32, []>(1)];
            tensor<int32, [4]> sequential_23_mobilenetv2_1_00_224_block_16_expand_Conv2Dx_pad_0 = const()[name = tensor<string, []>("sequential_23_mobilenetv2_1_00_224_block_16_expand_Conv2Dx_pad_0"), val = tensor<int32, [4]>([0, 0, 0, 0])];
            tensor<fp32, [960, 160, 1, 1]> const_100 = const()[name = tensor<string, []>("const_100"), val = tensor<fp32, [960, 160, 1, 1]>(BLOBFILE(path = tensor<string, []>("@model_path/weights/weight.bin"), offset = tensor<uint64, []>(5303296)))];
            tensor<fp32, [960]> const_101 = const()[name = tensor<string, []>("const_101"), val = tensor<fp32, [960]>(BLOBFILE(path = tensor<string, []>("@model_path/weights/weight.bin"), offset = tensor<uint64, []>(5917760)))];
            tensor<fp32, [1, 960, 7, 7]> sequential_23_mobilenetv2_1_00_224_block_16_expand_BN_FusedBatchNormV3_nchw = conv(bias = const_101, dilations = sequential_23_mobilenetv2_1_00_224_block_16_expand_Conv2Dx_dilations_0, groups = sequential_23_mobilenetv2_1_00_224_block_16_expand_Conv2Dx_groups_0, pad = sequential_23_mobilenetv2_1_00_224_block_16_expand_Conv2Dx_pad_0, pad_type = sequential_23_mobilenetv2_1_00_224_block_16_expand_Conv2Dx_pad_type_0, strides = sequential_23_mobilenetv2_1_00_224_block_16_expand_Conv2Dx_strides_0, weight = const_100, x = sequential_23_mobilenetv2_1_00_224_block_15_add_add)[name = tensor<string, []>("sequential_23_mobilenetv2_1_00_224_block_16_expand_BN_FusedBatchNormV3_nchw")];
            tensor<fp32, [1, 960, 7, 7]> sequential_23_mobilenetv2_1_00_224_block_16_expand_relu_Relu6 = relu6(x = sequential_23_mobilenetv2_1_00_224_block_16_expand_BN_FusedBatchNormV3_nchw)[name = tensor<string, []>("sequential_23_mobilenetv2_1_00_224_block_16_expand_relu_Relu6")];
            tensor<string, []> sequential_23_mobilenetv2_1_00_224_block_16_depthwise_depthwisex_pad_type_0 = const()[name = tensor<string, []>("sequential_23_mobilenetv2_1_00_224_block_16_depthwise_depthwisex_pad_type_0"), val = tensor<string, []>("same")];
            tensor<int32, [2]> sequential_23_mobilenetv2_1_00_224_block_16_depthwise_depthwisex_strides_0 = const()[name = tensor<string, []>("sequential_23_mobilenetv2_1_00_224_block_16_depthwise_depthwisex_strides_0"), val = tensor<int32, [2]>([1, 1])];
            tensor<int32, [2]> sequential_23_mobilenetv2_1_00_224_block_16_depthwise_depthwisex_dilations_0 = const()[name = tensor<string, []>("sequential_23_mobilenetv2_1_00_224_block_16_depthwise_depthwisex_dilations_0"), val = tensor<int32, [2]>([1, 1])];
            tensor<int32, []> sequential_23_mobilenetv2_1_00_224_block_16_depthwise_depthwisex_groups_0 = const()[name = tensor<string, []>("sequential_23_mobilenetv2_1_00_224_block_16_depthwise_depthwisex_groups_0"), val = tensor<int32, []>(960)];
            tensor<int32, [4]> sequential_23_mobilenetv2_1_00_224_block_16_depthwise_depthwisex_pad_0 = const()[name = tensor<string, []>("sequential_23_mobilenetv2_1_00_224_block_16_depthwise_depthwisex_pad_0"), val = tensor<int32, [4]>([0, 0, 0, 0])];
            tensor<fp32, [960, 1, 3, 3]> const_102 = const()[name = tensor<string, []>("const_102"), val = tensor<fp32, [960, 1, 3, 3]>(BLOBFILE(path = tensor<string, []>("@model_path/weights/weight.bin"), offset = tensor<uint64, []>(5921664)))];
            tensor<fp32, [960]> const_103 = const()[name = tensor<string, []>("const_103"), val = tensor<fp32, [960]>(BLOBFILE(path = tensor<string, []>("@model_path/weights/weight.bin"), offset = tensor<uint64, []>(5956288)))];
            tensor<fp32, [1, 960, 7, 7]> sequential_23_mobilenetv2_1_00_224_block_16_depthwise_BN_FusedBatchNormV3_nchw = conv(bias = const_103, dilations = sequential_23_mobilenetv2_1_00_224_block_16_depthwise_depthwisex_dilations_0, groups = sequential_23_mobilenetv2_1_00_224_block_16_depthwise_depthwisex_groups_0, pad = sequential_23_mobilenetv2_1_00_224_block_16_depthwise_depthwisex_pad_0, pad_type = sequential_23_mobilenetv2_1_00_224_block_16_depthwise_depthwisex_pad_type_0, strides = sequential_23_mobilenetv2_1_00_224_block_16_depthwise_depthwisex_strides_0, weight = const_102, x = sequential_23_mobilenetv2_1_00_224_block_16_expand_relu_Relu6)[name = tensor<string, []>("sequential_23_mobilenetv2_1_00_224_block_16_depthwise_BN_FusedBatchNormV3_nchw")];
            tensor<fp32, [1, 960, 7, 7]> sequential_23_mobilenetv2_1_00_224_block_16_depthwise_relu_Relu6 = relu6(x = sequential_23_mobilenetv2_1_00_224_block_16_depthwise_BN_FusedBatchNormV3_nchw)[name = tensor<string, []>("sequential_23_mobilenetv2_1_00_224_block_16_depthwise_relu_Relu6")];
            tensor<string, []> sequential_23_mobilenetv2_1_00_224_block_16_project_Conv2Dx_pad_type_0 = const()[name = tensor<string, []>("sequential_23_mobilenetv2_1_00_224_block_16_project_Conv2Dx_pad_type_0"), val = tensor<string, []>("same")];
            tensor<int32, [2]> sequential_23_mobilenetv2_1_00_224_block_16_project_Conv2Dx_strides_0 = const()[name = tensor<string, []>("sequential_23_mobilenetv2_1_00_224_block_16_project_Conv2Dx_strides_0"), val = tensor<int32, [2]>([1, 1])];
            tensor<int32, [2]> sequential_23_mobilenetv2_1_00_224_block_16_project_Conv2Dx_dilations_0 = const()[name = tensor<string, []>("sequential_23_mobilenetv2_1_00_224_block_16_project_Conv2Dx_dilations_0"), val = tensor<int32, [2]>([1, 1])];
            tensor<int32, []> sequential_23_mobilenetv2_1_00_224_block_16_project_Conv2Dx_groups_0 = const()[name = tensor<string, []>("sequential_23_mobilenetv2_1_00_224_block_16_project_Conv2Dx_groups_0"), val = tensor<int32, []>(1)];
            tensor<int32, [4]> sequential_23_mobilenetv2_1_00_224_block_16_project_Conv2Dx_pad_0 = const()[name = tensor<string, []>("sequential_23_mobilenetv2_1_00_224_block_16_project_Conv2Dx_pad_0"), val = tensor<int32, [4]>([0, 0, 0, 0])];
            tensor<fp32, [320, 960, 1, 1]> const_104 = const()[name = tensor<string, []>("const_104"), val = tensor<fp32, [320, 960, 1, 1]>(BLOBFILE(path = tensor<string, []>("@model_path/weights/weight.bin"), offset = tensor<uint64, []>(5960192)))];
            tensor<fp32, [320]> const_105 = const()[name = tensor<string, []>("const_105"), val = tensor<fp32, [320]>(BLOBFILE(path = tensor<string, []>("@model_path/weights/weight.bin"), offset = tensor<uint64, []>(7189056)))];
            tensor<fp32, [1, 320, 7, 7]> sequential_23_mobilenetv2_1_00_224_block_16_project_BN_FusedBatchNormV3_nchw = conv(bias = const_105, dilations = sequential_23_mobilenetv2_1_00_224_block_16_project_Conv2Dx_dilations_0, groups = sequential_23_mobilenetv2_1_00_224_block_16_project_Conv2Dx_groups_0, pad = sequential_23_mobilenetv2_1_00_224_block_16_project_Conv2Dx_pad_0, pad_type = sequential_23_mobilenetv2_1_00_224_block_16_project_Conv2Dx_pad_type_0, strides = sequential_23_mobilenetv2_1_00_224_block_16_project_Conv2Dx_strides_0, weight = const_104, x = sequential_23_mobilenetv2_1_00_224_block_16_depthwise_relu_Relu6)[name = tensor<string, []>("sequential_23_mobilenetv2_1_00_224_block_16_project_BN_FusedBatchNormV3_nchw")];
            tensor<string, []> sequential_23_mobilenetv2_1_00_224_Conv_1_Conv2Dx_pad_type_0 = const()[name = tensor<string, []>("sequential_23_mobilenetv2_1_00_224_Conv_1_Conv2Dx_pad_type_0"), val = tensor<string, []>("valid")];
            tensor<int32, [2]> sequential_23_mobilenetv2_1_00_224_Conv_1_Conv2Dx_strides_0 = const()[name = tensor<string, []>("sequential_23_mobilenetv2_1_00_224_Conv_1_Conv2Dx_strides_0"), val = tensor<int32, [2]>([1, 1])];
            tensor<int32, [2]> sequential_23_mobilenetv2_1_00_224_Conv_1_Conv2Dx_dilations_0 = const()[name = tensor<string, []>("sequential_23_mobilenetv2_1_00_224_Conv_1_Conv2Dx_dilations_0"), val = tensor<int32, [2]>([1, 1])];
            tensor<int32, []> sequential_23_mobilenetv2_1_00_224_Conv_1_Conv2Dx_groups_0 = const()[name = tensor<string, []>("sequential_23_mobilenetv2_1_00_224_Conv_1_Conv2Dx_groups_0"), val = tensor<int32, []>(1)];
            tensor<int32, [4]> sequential_23_mobilenetv2_1_00_224_Conv_1_Conv2Dx_pad_0 = const()[name = tensor<string, []>("sequential_23_mobilenetv2_1_00_224_Conv_1_Conv2Dx_pad_0"), val = tensor<int32, [4]>([0, 0, 0, 0])];
            tensor<fp32, [1280, 320, 1, 1]> const_106 = const()[name = tensor<string, []>("const_106"), val = tensor<fp32, [1280, 320, 1, 1]>(BLOBFILE(path = tensor<string, []>("@model_path/weights/weight.bin"), offset = tensor<uint64, []>(7190400)))];
            tensor<fp32, [1280]> const_107 = const()[name = tensor<string, []>("const_107"), val = tensor<fp32, [1280]>(BLOBFILE(path = tensor<string, []>("@model_path/weights/weight.bin"), offset = tensor<uint64, []>(8828864)))];
            tensor<fp32, [1, 1280, 7, 7]> sequential_23_mobilenetv2_1_00_224_Conv_1_bn_FusedBatchNormV3_nchw = conv(bias = const_107, dilations = sequential_23_mobilenetv2_1_00_224_Conv_1_Conv2Dx_dilations_0, groups = sequential_23_mobilenetv2_1_00_224_Conv_1_Conv2Dx_groups_0, pad = sequential_23_mobilenetv2_1_00_224_Conv_1_Conv2Dx_pad_0, pad_type = sequential_23_mobilenetv2_1_00_224_Conv_1_Conv2Dx_pad_type_0, strides = sequential_23_mobilenetv2_1_00_224_Conv_1_Conv2Dx_strides_0, weight = const_106, x = sequential_23_mobilenetv2_1_00_224_block_16_project_BN_FusedBatchNormV3_nchw)[name = tensor<string, []>("sequential_23_mobilenetv2_1_00_224_Conv_1_bn_FusedBatchNormV3_nchw")];
            tensor<int32, [4]> sequential_23_mobilenetv2_1_00_224_Conv_1_bn_FusedBatchNormV3_to_NHWC_perm_0 = const()[name = tensor<string, []>("sequential_23_mobilenetv2_1_00_224_Conv_1_bn_FusedBatchNormV3_to_NHWC_perm_0"), val = tensor<int32, [4]>([0, 2, 3, 1])];
            tensor<fp32, [1, 7, 7, 1280]> sequential_23_mobilenetv2_1_00_224_Conv_1_bn_FusedBatchNormV3_to_NHWC = transpose(perm = sequential_23_mobilenetv2_1_00_224_Conv_1_bn_FusedBatchNormV3_to_NHWC_perm_0, x = sequential_23_mobilenetv2_1_00_224_Conv_1_bn_FusedBatchNormV3_nchw)[name = tensor<string, []>("transpose_162")];
            tensor<fp32, [1, 7, 7, 1280]> sequential_23_mobilenetv2_1_00_224_out_relu_Relu6 = relu6(x = sequential_23_mobilenetv2_1_00_224_Conv_1_bn_FusedBatchNormV3_to_NHWC)[name = tensor<string, []>("sequential_23_mobilenetv2_1_00_224_out_relu_Relu6")];
            tensor<int32, [2]> sequential_23_global_average_pooling2d_23_Mean_axes_0 = const()[name = tensor<string, []>("sequential_23_global_average_pooling2d_23_Mean_axes_0"), val = tensor<int32, [2]>([1, 2])];
            tensor<bool, []> sequential_23_global_average_pooling2d_23_Mean_keep_dims_0 = const()[name = tensor<string, []>("sequential_23_global_average_pooling2d_23_Mean_keep_dims_0"), val = tensor<bool, []>(false)];
            tensor<fp32, [1, 1280]> sequential_23_global_average_pooling2d_23_Mean = reduce_mean(axes = sequential_23_global_average_pooling2d_23_Mean_axes_0, keep_dims = sequential_23_global_average_pooling2d_23_Mean_keep_dims_0, x = sequential_23_mobilenetv2_1_00_224_out_relu_Relu6)[name = tensor<string, []>("sequential_23_global_average_pooling2d_23_Mean")];
            tensor<fp32, [256, 1280]> transpose_156 = const()[name = tensor<string, []>("transpose_156"), val = tensor<fp32, [256, 1280]>(BLOBFILE(path = tensor<string, []>("@model_path/weights/weight.bin"), offset = tensor<uint64, []>(8834048)))];
            tensor<fp32, [256]> sequential_23_dense_53_BiasAdd_bias_0 = const()[name = tensor<string, []>("sequential_23_dense_53_BiasAdd_bias_0"), val = tensor<fp32, [256]>(BLOBFILE(path = tensor<string, []>("@model_path/weights/weight.bin"), offset = tensor<uint64, []>(10144832)))];
            tensor<fp32, [1, 256]> sequential_23_dense_53_BiasAdd = linear(bias = sequential_23_dense_53_BiasAdd_bias_0, weight = transpose_156, x = sequential_23_global_average_pooling2d_23_Mean)[name = tensor<string, []>("sequential_23_dense_53_BiasAdd")];
            tensor<fp32, [1, 256]> sequential_23_dense_53_Relu = relu(x = sequential_23_dense_53_BiasAdd)[name = tensor<string, []>("sequential_23_dense_53_Relu")];
            tensor<fp32, [101, 256]> transpose_157 = const()[name = tensor<string, []>("transpose_157"), val = tensor<fp32, [101, 256]>(BLOBFILE(path = tensor<string, []>("@model_path/weights/weight.bin"), offset = tensor<uint64, []>(10145920)))];
            tensor<fp32, [101]> sequential_23_dense_54_BiasAdd_bias_0 = const()[name = tensor<string, []>("sequential_23_dense_54_BiasAdd_bias_0"), val = tensor<fp32, [101]>(BLOBFILE(path = tensor<string, []>("@model_path/weights/weight.bin"), offset = tensor<uint64, []>(10249408)))];
            tensor<fp32, [1, 101]> sequential_23_dense_54_BiasAdd = linear(bias = sequential_23_dense_54_BiasAdd_bias_0, weight = transpose_157, x = sequential_23_dense_53_Relu)[name = tensor<string, []>("sequential_23_dense_54_BiasAdd")];
            tensor<int32, []> sequential_23_dense_54_Softmax_axis_0 = const()[name = tensor<string, []>("sequential_23_dense_54_Softmax_axis_0"), val = tensor<int32, []>(-1)];
            tensor<fp32, [1, 101]> Identity = softmax(axis = sequential_23_dense_54_Softmax_axis_0, x = sequential_23_dense_54_BiasAdd)[name = tensor<string, []>("sequential_23_dense_54_Softmax")];
        } -> (Identity);
}